model_checkpoints/graphLambda_hdim_64_batch_32.pt (torch, 783634 bytes, 71 tensors)

conv1.bias f4 [128]
000000 ea bd 79 3b af 6a e8 3b 00 00 00 00 00 00 00 00
       0.0038107582 0.007092796 0.0 0.0
000010 00 00 00 00 28 da 22 b9 ff d5 97 bc 48 68 b1 3c
       0.0 -0.00015530793 -0.018534658 0.02165617
000020 00 00 00 00 49 03 b3 bb a1 40 36 3c e4 2c 0c bc
       0.0 -0.005463038 0.011123807 -0.008555625
000030 00 00 00 00 b9 21 3d 3c 7f 50 35 bc dc ec ea ba
       0.0 0.011543685 -0.011066555 -0.0017923373
000040 00 00 00 00 00 00 00 00 06 53 3f 3c 00 00 00 00
       0.0 0.0 0.011677509 0.0
000050 4b 31 dc bb 2f 8b 63 bc 00 00 00 00 01 ba 8a 3b
       -0.0067197434 -0.013888164 0.0 0.004233599
000060 6f 54 c4 3c 22 bc 2f 3b 69 e3 34 bc 00 00 00 00
       0.023966042 0.0026815017 -0.011040547 0.0
000070 b7 0e 03 bc 00 00 00 00 c6 19 84 39 b1 69 0d bc
       -0.007999114 0.0 0.00025196205 -0.008631156
000080 61 4b 51 bd 6e e1 56 bc c2 e1 ae 3b f4 50 e7 ba
       -0.051097278 -0.01311527 0.005336971 -0.0017648027
000090 2b 8e 1c 3c 00 00 00 00 00 00 00 00 60 a9 20 3c
       0.00955538 0.0 0.0 0.009806007
0000a0 ec 18 71 ba 26 25 72 3a d0 77 03 3c 1f fb 18 bb
       -0.0009197134 0.0009237103 0.008024171 -0.002334304
0000b0 51 5b d4 3c 8a c6 41 bd b3 f8 01 bb 92 92 da bc
       0.02592245 -0.047308482 -0.0019832074 -0.026681218
0000c0 95 d7 13 3d c5 00 38 3d 7e 5c a0 3b 2a ec 89 bc
       0.036094267 0.04492261 0.0048938384 -0.016836245
0000d0 87 72 b7 3c ac ba f0 3a 13 1a 90 bb f3 38 13 bd
       0.022393478 0.001836618 -0.0043976395 -0.035942983
0000e0 00 00 00 00 09 3a 66 3c 00 00 00 00 9e 0e 7b bc
       0.0 0.014051923 0.0 -0.015323309
0000f0 bc ce 66 3b c7 5b 2c 3b e3 12 b4 3b 00 00 00 00
       0.0035218438 0.002629982 0.0054954155 0.0
000100 00 00 00 00 4a bc 92 3c 00 00 00 00 ef 94 49 bd
       0.0 0.017912049 0.0 -0.0492143
000110 00 00 00 00 64 6b 60 3c 88 98 16 bc d0 b2 83 bb
       0.0 0.013697479 -0.00919164 -0.004019119
000120 7b 4b e3 3c 00 00 00 00 c7 95 bd 3c 00 00 00 00
       0.027745953 0.0 0.023142708 0.0
000130 00 00 00 00 c6 78 c3 bb 00 00 00 00 fa 1b 4a 3c
       0.0 -0.005965325 0.0 0.012335772
000140 00 00 00 00 00 00 00 00 8d 5f 20 3d 85 5c 5a 3c
       0.0 0.0 0.039153624 0.013327722
000150 51 93 df 3c 94 fb a9 bb f2 ab 1f bc 00 00 00 00
       0.027291926 -0.005187461 -0.009745585 0.0
000160 00 00 00 00 ed d0 df ba 33 1a 88 3b 71 59 03 bd
       0.0 -0.0017075815 0.004153514 -0.03206772
000170 c9 b7 b5 3c b7 1e 50 3b 00 00 00 00 64 89 3d bc
       0.022182362 0.0031756589 0.0 -0.011568401
000180 57 a9 26 bb 00 00 00 00 00 00 00 00 83 15 45 bb
       -0.0025430524 0.0 0.0 -0.0030072636
000190 08 c0 29 3c 00 00 00 00 00 00 00 00 e4 1c 21 bd
       0.010360725 0.0 0.0 -0.039334193
0001a0 00 00 00 00 82 c1 bd b9 cb 30 a6 38 00 00 00 00
       0.0 -0.00036193064 7.924585e-05 0.0
0001b0 00 00 00 00 51 dd e5 3c c4 46 cb 3c 24 f0 c3 bb
       0.0 0.028059633 0.024814017 -0.0059795547
0001c0 00 00 00 00 ea f7 8c 3b 30 f4 e0 bc 00 00 00 00
       0.0 0.0043020146 -0.027460188 0.0
0001d0 00 00 00 00 89 ae e3 bc e0 a8 1b 3c 00 00 00 00
       0.0 -0.027793186 0.009500712 0.0
0001e0 00 00 00 00 a7 34 57 bc 00 00 00 00 d3 f8 92 bc
       0.0 -0.013135112 0.0 -0.017940914
0001f0 bb 1a 0c 3c 20 2b fe 3c ef ee 84 bb 24 04 5b 3c
       0.008551295 0.031026423 -0.0040568034 0.013367686

conv1.lin.weight f4 [128, 9]
000000 16 54 00 3e 4a 9f 76 bd cb 71 2f 3e a6 c3 fd bd
       0.12532076 -0.060210504 0.17133252 -0.123908326
000010 22 e3 04 3e eb 2d 51 3e 5d 96 0e 3e 12 97 7d bd
       0.1297727 0.20427673 0.13924547 -0.06191165
000020 c9 be 5a 3d fb 7d c3 3d 79 f1 f2 3c 9a 1b 9e 3d
       0.053404603 0.09545513 0.029656159 0.07720108
000030 4b 3b ed bd 40 3c 05 be 17 0a 17 be 7a 30 53 3d
       -0.11583575 -0.13011265 -0.14749943 0.051559903
000040 4b 1c b0 bd 0a a1 c4 bd 14 68 98 bd 8f 00 04 be
       -0.085991465 -0.09601028 -0.07441726 -0.12890838
000050 fc 5c 44 be eb 40 57 3d 4c f0 15 be eb 89 24 3d
       -0.19176096 0.052552145 -0.14642447 0.04017059
000060 79 b2 11 3d cf 66 04 3e 40 bc 9e bd a2 10 45 bd
       0.035570595 0.12929843 -0.077507496 -0.048111565
000070 a0 6f 1c 3e 17 d7 33 be e7 1e 4c be c5 b7 f1 bd
       0.15276957 -0.17562519 -0.19933663 -0.118026294
000080 2d 84 ba 3b cf d5 10 be 9c 8f 32 be 59 3f 2a bd
       0.005692026 -0.14144062 -0.17437595 -0.04156432
000090 d1 a9 d9 bd cc 42 b2 bc dc 46 fd 3d fd 96 36 be
       -0.10628093 -0.021760367 0.12367031 -0.17831035
0000a0 02 f2 b9 bd 64 36 48 3e 98 68 32 3e dc 7e 4b be
       -0.090793625 0.19551998 0.17422712 -0.19872612
0000b0 31 4b 9e bd 3b 87 0c 3e 7c 78 f0 3d 79 70 0b 3e
       -0.077291854 0.13723461 0.117417306 0.13617124
0000c0 d4 a3 a7 bd de d3 09 bc ba 16 02 3e 08 ff 28 3e
       -0.081855446 -0.0084123295 0.12703982 0.16503537
0000d0 58 ce 3d be 41 9b d7 bc 1e d5 8e bd 8b a5 1a 3c
       -0.18535745 -0.026319148 -0.06974243 0.009438883
0000e0 c0 5e 97 bd 2d 21 b6 3d 7b 74 2d 3e 67 a3 8d 3d
       -0.07391119 0.088930465 0.16938965 0.06915932
0000f0 6f b8 58 bd 56 0d 3f bd bc 2f 18 bd a0 cf 15 3d
       -0.052910265 -0.046643578 -0.037154898 0.03657496
000100 2b 31 9f 3d 14 6f 0c bd 24 c1 13 3b 84 27 18 bc
       0.0777305 -0.03428562 0.002254554 -0.009286765
000110 15 0d fa bc 03 30 cf 3d b5 4b 28 bd 5a 41 40 3e
       -0.030523816 0.101165794 -0.041087825 0.1877493
000120 ed 69 4c be c8 75 72 bd 94 65 b2 bd d9 e6 08 be
       -0.19962282 -0.059194356 -0.08710781 -0.13369311
000130 a7 d9 8e 3d 09 cf e6 bd fb d8 84 bd b9 fd 9e 3d
       0.06975108 -0.112699576 -0.06486698 0.077632375
000140 82 7d 7e 3d 53 b3 80 bd bf 93 02 be 59 2d 50 3e
       0.062131412 -0.062842034 -0.12751673 0.20329799
000150 03 63 59 3e 5e 98 48 3e e0 95 e7 bd 22 39 b3 3b
       0.21229176 0.19589373 -0.11307883 0.0054694572
000160 ae 3b 1d 3e 03 fd 6e 3e 8f cd ae 3d 66 38 95 3d
       0.15354797 0.23338704 0.08535301 0.07286148
000170 b2 44 2b 3e 6c 9e 29 be 96 cc 19 3e b1 c9 e4 3d
       0.16725424 -0.1656434 0.1501945 0.11171282
000180 02 9e 8b bd dd 1d 1d 3e 9a 5a 09 bd f6 5d 1f be
       -0.06817247 0.15343423 -0.03353367 -0.15563187
000190 9a 8c 04 3d 1f a8 0a 3e 18 38 7c 3d d1 b2 bc 3d
       0.03236065 0.13540696 0.061576933 0.09213794
0001a0 ae 15 11 be 41 38 66 bd 3f 0f cf 3c 0f b7 1d 3d
       -0.14168426 -0.05620599 0.025275825 0.038504656
0001b0 5b f7 3d be c1 98 07 3e 5f a6 0d bc c8 d6 53 be
       -0.1855139 0.13241865 -0.008645623 -0.20687401
0001c0 46 35 51 3e ac 30 05 3e 1d ce 49 be 00 7a 15 be
       0.20430478 0.13006848 -0.19707532 -0.1459732
0001d0 27 cd 00 3e ad bb 88 3d b5 c7 86 bd 77 6a 4a 3e
       0.1257826 0.06676421 -0.0658106 0.19767176
0001e0 69 5f 14 be fe 64 2a 3d ee 63 3d 3c 64 62 ae 3c
       -0.14489521 0.04160022 0.01155947 0.02128715
0001f0 1c 94 2f 3e b0 f0 32 be fa c9 e0 3b 13 83 23 3e
       0.17146343 -0.17474627 0.006860015 0.1596797
000200 c3 21 2a be 28 0d b7 bd 0a 90 47 be da 5e 24 3e
       -0.16614442 -0.08938056 -0.1948854 0.16051808
000210 8e e3 a1 bc 57 e5 39 3e 83 37 b2 bd 27 75 dc 3c
       -0.019761827 0.18153892 -0.08701994 0.026911331
000220 14 3f 65 3c e9 3b 36 3e ea 35 b3 bd 73 d7 ee 3d
       0.01399209 0.17796291 -0.08750518 0.116621874
000230 c1 df d9 bc 10 ed 04 be 0f 77 c4 bd ee 8b dd 3d
       -0.026595952 -0.12981057 -0.09593021 0.10817705
000240 17 3b 03 be 93 98 2a bc a0 d4 40 bd 30 09 ea bc
       -0.1281551 -0.010412353 -0.047077775 -0.028568834
000250 46 f0 50 3d 66 a6 c1 3c 3c 26 26 bd 66 d8 4d bc
       0.051010393 0.023638915 -0.040563807 -0.0125638
000260 d1 e4 b8 3b b1 4b 91 bd 2c 37 a6 bd 04 5b 42 be
       0.0056425114 -0.07094515 -0.08115992 -0.18980032
000270 64 de 91 3b 07 39 f1 3d 60 e2 43 3e cb 3b d2 3c
       0.00445156 0.11778455 0.19129324 0.025663277
000280 be 22 48 3e 34 b4 30 3e 95 b3 d0 3d e7 5b 01 3d
       0.19544503 0.17256242 0.101905026 0.031581786
000290 b8 d6 2b 3e 34 0c 3a 3e 30 5f 3d 3b 8b d8 0e bd
       0.16781127 0.18168718 0.0028895847 -0.03487448
0002a0 35 90 44 3d 75 ab d2 3d 8f d4 d0 bd 06 2d b1 bc
       0.04798909 0.10286609 -0.10196792 -0.021627914
0002b0 d7 e3 b5 3d ae be 3d be ee e6 d4 3c 88 4a 82 3b
       0.088813476 -0.1852977 0.025989022 0.00397617
0002c0 e5 5b 15 3c 11 b7 83 bd 02 01 1b be af 27 00 3e
       0.009116148 -0.064314015 -0.15137103 0.12515138
0002d0 97 fe a0 3c 13 be 49 bd 55 42 3c 3d d9 ee 79 3e
       0.019652648 -0.049253535 0.045961697 0.2440752
0002e0 fb e3 9b bd 24 48 46 bd 14 c3 02 3d 6b 6b ff bd
       -0.07611843 -0.048408642 0.031924322 -0.1247166
0002f0 69 d7 c7 3d 1d f0 4a 3b de af 83 ba c3 bc a3 bb
       0.09757883 0.0030965873 -0.0010046919 -0.0049968674
000300 2a e5 38 bd 80 0c 6a be 84 39 54 3e d8 78 b6 3d
       -0.045140423 -0.22856331 0.20725065 0.08909768
000310 15 66 98 bd 50 4a dc 3d 37 89 2e be 56 af 06 be
       -0.074413456 0.107563615 -0.17044531 -0.13152823
000320 08 43 0e 3d 19 30 98 bb 1b c7 81 bd 7e 39 19 be
       0.034731895 -0.0046444056 -0.063368045 -0.14963338
000330 68 88 bc bc 60 a4 c1 bd 8d be 09 3e 6a f2 14 3e
       -0.023014262 -0.0945518 0.13451596 0.14545599
000340 ab da 25 3e ea 22 59 3e c8 3d 0c be ef fa 64 3d
       0.16196696 0.21204725 -0.13695443 0.05590337
000350 71 02 2c bd b9 88 eb bd f2 3f 1e 3d 61 19 a6 bc
       -0.041994516 -0.11500687 0.0386352 -0.020275773
000360 3d 25 1c bd 85 89 a1 bd 50 94 30 3e e8 d1 28 3e
       -0.03812145 -0.07887558 0.17244077 0.16486323
000370 c0 f2 07 3d 94 df 20 3e a0 ed 07 3e 9b 38 12 3b
       0.03319049 0.15710288 0.1327424 0.0022311572
000380 5e 68 5a 3c df db 3b 3e 83 e0 54 be b6 39 cc 39
       0.013330547 0.18345593 -0.2078877 0.0003895291
000390 15 fb 38 be 01 48 f1 3c 66 ed 40 3d 0c 03 04 3e
       -0.1806453 0.02945328 0.0471014 0.12891787
0003a0 5c 27 bd bc 31 cc 49 3d 8e 2f b4 3d c9 ff 80 bd
       -0.023090057 0.049266998 0.08798133 -0.06298787
0003b0 53 63 4f bd 40 cb 3e 3e 6d e4 9b bc 31 a4 ec 3d
       -0.050631832 0.18632221 -0.01902982 0.115547545
0003c0 0e 2a 74 bd 2e 81 1a 3d 53 0b 62 be 02 6d bd bc
       -0.05961042 0.03772085 -0.22074632 -0.023123268
0003d0 1d 6d 5e 3d 34 c6 4a be 3a 11 02 be 05 f8 c9 bd
       0.054303277 -0.19802171 -0.12701884 -0.09861759
0003e0 6b 65 3c 3e a1 64 06 3e 3d f8 b3 bb ed 4a 19 be
       0.18398063 0.13124324 -0.005492239 -0.14969988
0003f0 f2 22 09 3e 04 60 24 3e 81 11 af bd 37 c7 56 bd
       0.13392237 0.16052252 -0.085482605 -0.05243608

bn01.weight f4 [128]
000000 45 13 7f 3f 57 73 75 3f 27 df 7e 3f 27 df 7e 3f
       0.9963878 0.9587912 0.99559253 0.99559253
000010 27 df 7e 3f 11 0b 76 3f 9d 4f 7a 3f 05 f1 7d 3f
       0.99559253 0.96110636 0.9777773 0.9919589
000020 27 df 7e 3f 6d 33 80 3f b4 97 77 3f 4d c4 7c 3f
       0.99559253 1.0015694 0.96715856 0.9873703
000030 27 df 7e 3f 66 00 82 3f d5 95 7b 3f 9b e0 86 3f
       0.99559253 1.0156372 0.982755 1.0537294
000040 27 df 7e 3f 27 df 7e 3f f4 6f 82 3f 27 df 7e 3f
       0.99559253 0.99559253 1.0190415 0.99559253
000050 63 31 79 3f 0e b3 74 3f 27 df 7e 3f ce 8d 80 3f
       0.97340983 0.95585716 0.99559253 1.0043275
000060 f1 34 73 3f 12 18 78 3f 77 ad 75 3f 27 df 7e 3f
       0.9500266 0.9691173 0.9596781 0.99559253
000070 9a d3 85 3f 27 df 7e 3f 43 f0 85 3f 3a 38 81 3f
       1.0455201 0.99559253 1.0463947 1.0095284
000080 13 a8 7c 3f 64 f9 7c 3f a4 cf 7d 3f 99 6f 7f 3f
       0.9869396 0.9881804 0.9914496 0.9977966
000090 d9 ab 83 3f 27 df 7e 3f 27 df 7e 3f 58 08 83 3f
       1.0286819 0.99559253 0.99559253 1.0236921
0000a0 96 7e 80 3f 68 d3 77 3f 2f 5b 7e 3f 05 06 7f 3f
       1.0038631 0.96806955 0.99357885 0.9961856
0000b0 48 af 79 3f ab 67 80 3f f9 e9 7b 3f 70 4d 83 3f
       0.9753308 1.0031637 0.9840389 1.0258007
0000c0 d6 35 84 3f 6a be 7e 3f 3d 53 84 3f 43 bf 82 3f
       1.032893 0.995093 1.0337902 1.0214618
0000d0 7f e3 80 3f ae 93 74 3f 3d ad 76 3f 3e 89 77 3f
       1.0069426 0.9553784 0.9635809 0.9669379
0000e0 27 df 7e 3f 0a 45 7b 3f 27 df 7e 3f b4 c5 83 3f
       0.99559253 0.9815222 0.99559253 1.0294709
0000f0 2e 57 78 3f d6 5e 74 3f f8 4d 80 3f 27 df 7e 3f
       0.97008026 0.9545721 1.0023794 0.99559253
000100 27 df 7e 3f 9c 6e 74 3f 27 df 7e 3f 9d 16 87 3f
       0.99559253 0.95481277 0.99559253 1.0553776
000110 27 df 7e 3f 02 f0 7d 3f d2 88 7c 3f 94 02 7f 3f
       0.99559253 0.9919435 0.9864627 0.9961331
000120 a4 b1 7e 3f 27 df 7e 3f 7b 31 81 3f 27 df 7e 3f
       0.9948981 0.99559253 1.0093225 0.99559253
000130 27 df 7e 3f 28 bf 84 3f 27 df 7e 3f 28 62 7d 3f
       0.99559253 1.0370836 0.99559253 0.989779
000140 27 df 7e 3f 27 df 7e 3f 9c 05 7c 3f 0c c0 83 3f
       0.99559253 0.99559253 0.9844606 1.0292983
000150 80 a5 75 3f b5 bd 70 3f da 25 82 3f 27 df 7e 3f
       0.9595566 0.9403947 1.0167801 0.99559253
000160 27 df 7e 3f 19 36 76 3f 65 ae 7e 3f f0 62 81 3f
       0.99559253 0.96176296 0.99484855 1.0108318
000170 3e dd 75 3f 00 3e 7b 3f 27 df 7e 3f ff 6e 85 3f
       0.96040714 0.9814148 0.99559253 1.0424498
000180 03 5a 6e 3f 27 df 7e 3f 27 df 7e 3f 94 b2 79 3f
       0.93106097 0.99559253 0.99559253 0.97538114
000190 2c ac 77 3f 27 df 7e 3f 27 df 7e 3f 4d 10 82 3f
       0.9674709 0.99559253 0.99559253 1.0161225
0001a0 27 df 7e 3f 62 1c 81 3f fa 45 82 3f 27 df 7e 3f
       0.99559253 1.0086787 1.0177605 0.99559253
0001b0 27 df 7e 3f 4b da 7b 3f c7 cf 7b 3f 68 57 7d 3f
       0.99559253 0.98379964 0.9836392 0.98961496
0001c0 27 df 7e 3f 22 c9 7a 3f 24 77 71 3f 27 df 7e 3f
       0.99559253 0.97963154 0.9432242 0.99559253
0001d0 27 df 7e 3f f0 82 85 3f 8c 8f 79 3f 27 df 7e 3f
       0.99559253 1.0430584 0.9748466 0.99559253
0001e0 27 df 7e 3f 8b 4d 7b 3f 27 df 7e 3f b0 fd 70 3f
       0.99559253 0.98165196 0.99559253 0.94137096
0001f0 b9 e7 86 3f 29 a2 81 3f 34 1e 81 3f d4 b5 83 3f
       1.0539466 1.0127612 1.0087342 1.0289865

bn01.bias f4 [128]
000000 74 9c 5b bd 93 04 a0 bc d2 71 5a bd e9 37 78 bc
       -0.053616002 -0.019533431 -0.053331204 -0.015150049
000010 2a 80 11 bd 12 b3 fc bc d4 ec ea 3b 16 b9 ce 3b
       -0.035522617 -0.030847106 0.0071693454 0.006308685
000020 a5 bc 4f bd 7d 98 ae bb 95 c3 59 3d 9e 1b 53 bd
       -0.050717015 -0.0053282366 0.053165037 -0.05154001
000030 4c 74 6e 3d 8e dc c1 bc fa b3 e6 3c ac 0f 1e 3c
       0.058216378 -0.023664739 0.028161991 0.009647291
000040 07 96 b9 3c df 8f 56 3d 85 64 9c bc 9b fe c1 bc
       0.022654546 0.0523833 -0.0190909 -0.023680976
000050 ff e7 9b b9 72 12 8a bd a0 80 8a 3d 37 a4 86 3d
       -0.00029736754 -0.067417994 0.067628145 0.0657429
000060 66 cd 51 bb fb 85 23 bd 74 b4 a3 3c c8 0f d1 bc
       -0.0032013296 -0.039922696 0.019983508 -0.02552022
000070 a9 54 39 bd f8 ba e2 bc f8 bf 27 ba 4f ad c2 bc
       -0.045246754 -0.027677044 -0.000639915 -0.02376428
000080 f7 69 2f bd 20 71 87 bc a7 65 41 3c e1 14 4b 3d
       -0.042825665 -0.016533434 0.011804021 0.04958046
000090 55 dc 70 bd dd 07 5a 3c c6 b3 0e bd 87 f2 31 3c
       -0.058803875 0.013307539 -0.034839414 0.010861046
0000a0 95 8a b1 3c aa cc 08 3d ec fe a2 3b 32 7e 3b bd
       0.021672526 0.033398308 0.0049742367 -0.045774646
0000b0 f3 77 f8 bc 5e d6 14 3d 2d 25 cd bd 48 4f 4e bd
       -0.030330634 0.03633725 -0.10016856 -0.050368577
0000c0 1c 35 67 3d c3 25 98 3d 1f ed 1f bd fc d6 75 bd
       0.056447133 0.074290775 -0.039044496 -0.06001948
0000d0 d5 d9 29 3d 01 e3 e0 bc 12 a8 1a 3d dd 9d 79 3b
       0.041467506 -0.027451994 0.03775794 0.0038088479
0000e0 b3 3a 4c 3d 40 8f 1b 3d c2 62 90 bc c7 44 54 bd
       0.049860667 0.03797841 -0.017625216 -0.051823404
0000f0 21 99 d0 3b 48 ea 3c 3d 98 6b 8d bc fa 1d 44 3d
       0.0063659106 0.046121866 -0.017263219 0.04788015
000100 39 09 81 3d 7f ab ba bc 6b 62 0c 3d 0d d1 4c bd
       0.06300587 -0.022786854 0.034273546 -0.050004054
000110 a3 4a 88 3d 74 a9 7b 3d 4b f3 f5 bb ab 5c 3b bd
       0.06654861 0.0614409 -0.0075058094 -0.045742672
000120 d7 44 eb 3c 9f 93 bd bb f9 11 c9 3c f5 63 1f 3d
       0.028719349 -0.00578542 0.024544703 0.038913686
000130 c3 7a 16 3c f0 e9 37 bd 6a fb 56 3d 2e ad 53 bc
       0.009184542 -0.044900835 0.05248586 -0.012919707
000140 7f 98 2f 3d 75 b3 c1 bb 73 38 da bc f6 06 50 bc
       0.04287004 -0.0059112855 -0.026638245 -0.012696972
000150 b8 86 35 3d a1 cb de 3b cd 24 87 3a 10 b6 3e bd
       0.04431793 0.006799177 0.001031065 -0.046560347
000160 43 2d 16 3c 91 54 25 bd d7 40 9f bc a7 19 a3 bd
       0.009166065 -0.040363852 -0.019440098 -0.07963877
000170 0f d3 05 3d d4 09 5a bd 21 65 0d bd 35 af 68 3b
       0.032671984 -0.05323203 -0.034520272 0.0035504822
000180 88 cd 1e bd c7 b2 b6 bb d6 3c 88 3d 1e 2f ef bc
       -0.03877023 -0.005575511 0.066522285 -0.029197272
000190 c0 2b 58 bd 05 c8 f6 bc 7f 00 93 bd 5d f3 9e 3b
       -0.0527761 -0.030124674 -0.07177829 0.0048507885
0001a0 1d 81 5e bd e8 1c 0c 3c 1d 1a ce bc 1f a0 e1 bb
       -0.05432235 0.008551814 -0.025158936 -0.006885543
0001b0 c0 6e 89 bd 83 63 f8 bc 14 cc 78 3c cb 42 10 3d
       -0.06710577 -0.030320888 0.015185375 0.03521995
0001c0 47 1f 04 bd 4d 1b 34 bd ca 6b bc ba 5f 84 89 3b
       -0.03225639 -0.04397135 -0.0014375385 0.004196688
0001d0 b9 05 6b bd 05 ed ec bc 8e 80 59 3c 14 61 ac 3c
       -0.057378504 -0.028921613 0.013275279 0.021042384
0001e0 d3 03 5f 3d f5 21 53 3d 71 42 fe bc 40 b1 4a bd
       0.054447006 0.051546056 -0.031037541 -0.049485445
0001f0 7f 63 71 3c 45 e8 97 bd b5 d1 a9 3b ad 51 06 3c
       0.014733194 -0.07417349 0.0051824697 0.008198184

bn01.running_mean f4 [128]
000000 4e e1 69 3f 11 a9 7e 3e 00 00 00 00 00 00 00 00
       0.9135941 0.24869181 0.0 0.0
000010 00 00 00 00 cd f8 96 3f 32 24 2d 20 a7 35 0a 3f
       0.0 1.1794678 1.4665646e-19 0.53988117
000020 00 00 00 00 a4 52 aa 3f 91 37 1f 3c f3 41 a5 19
       0.0 1.330647 0.009717838 1.7087237e-23
000030 00 00 00 00 59 57 de 3d 99 67 99 16 3f 92 bf 3b
       0.0 0.10856504 2.4783862e-25 0.0058462913
000040 00 00 00 00 00 00 00 00 77 2e 08 40 00 00 00 00
       0.0 0.0 2.127836 0.0
000050 af 71 d3 3f 0c b2 c9 3d 00 00 00 00 e0 17 ba 3e
       1.6519068 0.09848413 0.0 0.3634634
000060 81 ee bc 3f 42 1e 12 3f 31 20 94 3f 00 00 00 00
       1.4760286 0.5707742 1.1572324 0.0
000070 17 8f 16 3f 00 00 00 00 28 90 0f 3e c4 36 6d 3f
       0.5881209 0.0 0.14019835 0.9266169
000080 e1 46 2c 3d 1e 01 ab 18 fe e5 e1 3f 08 26 f5 3f
       0.042059783 4.4203592e-24 1.7648313 1.9152231
000090 60 13 12 3d 00 00 00 00 00 00 00 00 14 65 5e 3f
       0.03566301 0.0 0.0 0.8687298
0000a0 6e f2 a9 3e e5 27 c8 3f 72 d5 ac 3e 48 8f 75 3d
       0.33192772 1.5637175 0.33756596 0.059951097
0000b0 05 4c 48 3f b0 21 56 3d a3 0d a3 3f 37 a7 45 26
       0.78240997 0.05227822 1.2738537 6.8574723e-16
0000c0 46 c9 5d 3f 1e 9a 3a 3f c6 ff 9e 3d bd 63 12 3d
       0.86635244 0.72891414 0.07763629 0.03573965
0000d0 d8 54 0b 3f 91 8f ca 3f f5 90 cb 3f dc e2 a7 37
       0.54426336 1.5825063 1.5903612 2.0013591e-05
0000e0 00 00 00 00 ef db 13 3f 00 00 00 00 01 40 39 3e
       0.0 0.5775747 0.0 0.18090822
0000f0 cf 64 9b 3f 6a c4 db 3f 19 e5 8f 3f 00 00 00 00
       1.2140139 1.7169316 1.124179 0.0
000100 00 00 00 00 0f 22 2d 3f 00 00 00 00 8c de 12 3f
       0.0 0.67630094 0.0 0.5737083
000110 00 00 00 00 57 fe a0 3d ec 5c 84 16 20 f4 2c 40
       0.0 0.078610115 2.1384392e-25 2.7024002
000120 41 95 e2 3d 00 00 00 00 e5 0b 2d 39 00 00 00 00
       0.11063624 0.0 0.00016502997 0.0
000130 00 00 00 00 61 94 8b 3f 00 00 00 00 a1 58 3a 3f
       0.0 1.0904657 0.0 0.72791487
000140 00 00 00 00 00 00 00 00 0f 07 2d 3f c9 3a 87 3f
       0.0 0.0 0.67588896 1.0564815
000150 9b 31 3e 3e 67 b5 db 3f 91 61 ce 3f 00 00 00 00
       0.1857361 1.7164735 1.6123525 0.0
000160 00 00 00 00 17 2b 5f 3f 0f f5 e5 3e 6f 7e bf 3e
       0.0 0.87175125 0.44913527 0.3740115
000170 c4 a5 cf 3b 01 ef cd 3f 00 00 00 00 91 ec 8a 3f
       0.0063368995 1.6088563 0.0 1.0853444
000180 35 09 95 3d 00 00 00 00 00 00 00 00 bd 43 ca 3f
       0.07277147 0.0 0.0 1.5801922
000190 15 a1 ff 3e 00 00 00 00 00 00 00 00 ee 87 11 3e
       0.49927583 0.0 0.0 0.1421201
0001a0 00 00 00 00 ea 21 20 3f 7e 06 d4 3f 00 00 00 00
       0.0 0.6255175 1.6564481 0.0
0001b0 00 00 00 00 99 9b 8f 3e 56 b9 e5 3e b0 0d 8d 15
       0.0 0.280484 0.44867963 5.697104e-26
0001c0 00 00 00 00 28 59 0c 40 4a 35 10 3e 00 00 00 00
       0.0 2.1929417 0.14082828 0.0
0001d0 00 00 00 00 af 19 4a 3d 06 cd e8 3f 00 00 00 00
       0.0 0.0493409 1.8187568 0.0
0001e0 00 00 00 00 c8 5f 4c 19 00 00 00 00 16 9e 9e 3f
       0.0 1.0565896e-23 0.0 1.2391994
0001f0 7f 0c 5b 3e 5c fe 1b 3f 1a f0 7c 3f 5b 8b 09 3f
       0.21391486 0.60934997 0.98803866 0.53728265

bn01.running_var f4 [128]
000000 14 92 ea 3d bf ee d8 3c 0b 25 fa 1d 0b 25 fa 1d
       0.114536434 0.02648103 6.621275e-21 6.621275e-21
000010 0b 25 fa 1d ad 29 29 3e 18 75 6d 1e 50 6c 4c 3d
       6.621275e-21 0.16519804 1.257089e-20 0.049907982
000020 0b 25 fa 1d c5 be e5 3d 5d 6f 8c 3b 7b 2e fa 1d
       6.621275e-21 0.11218027 0.0042857365 6.622251e-21
000030 0b 25 fa 1d 43 04 50 3c 5c 25 fa 1d 2f 0b 4c 3a
       6.621275e-21 0.012696329 6.6213078e-21 0.0007783649
000040 0b 25 fa 1d 0b 25 fa 1d 16 68 3d 3e 0b 25 fa 1d
       6.621275e-21 6.621275e-21 0.18496737 6.621275e-21
000050 73 28 db 3d 76 17 8a 3c 0b 25 fa 1d 99 76 96 3d
       0.107010745 0.01685689 6.621275e-21 0.073468395
000060 8b 26 0d 3e a5 47 e7 3d a1 1f bd 3d 0b 25 fa 1d
       0.13784234 0.11292962 0.09234548 6.621275e-21
000070 d5 f7 8e 3d 0b 25 fa 1d ac 77 bf 3c 63 79 d7 3d
       0.06980864 6.621275e-21 0.023372494 0.105211996
000080 aa a0 fd 3b df 27 fa 1d aa 6c 56 3e bb df 99 3e
       0.0077401 6.6215675e-21 0.2093989 0.30053505
000090 f8 18 c8 3b 0b 25 fa 1d 0b 25 fa 1d 34 4e 14 3e
       0.006106492 6.621275e-21 6.621275e-21 0.14482957
0000a0 65 77 dc 3c 20 87 e0 3d 26 25 ae 3c 72 11 1a 3c
       0.0269124 0.10963273 0.021257948 0.009403573
0000b0 0b 3c 7e 3d 5a fa 88 3b f4 3f ad 3d a8 4a 13 24
       0.06206898 0.004180235 0.08459464 3.193878e-17
0000c0 e4 05 81 3d bf 91 27 3e 4e f4 21 3c ec d2 b5 3b
       0.06299952 0.16364191 0.009884907 0.0055488255
0000d0 b9 f3 19 3d 60 e0 ef 3d a8 2d 3b 3e a1 14 97 36
       0.037585948 0.11712718 0.18279135 4.502552e-06
0000e0 0b 25 fa 1d bf 49 86 3d 0b 25 fa 1d cb 05 74 3d
       6.621275e-21 0.06557035 6.621275e-21 0.059575837
0000f0 b6 90 1d 3e ef c7 ef 3d 68 c4 9b 3d 0b 25 fa 1d
       0.15387234 0.11708056 0.07605821 6.621275e-21
000100 0b 25 fa 1d ba 4d 29 3d 0b 25 fa 1d 35 2a c1 3d
       6.621275e-21 0.04133389 6.621275e-21 0.094318785
000110 0b 25 fa 1d 5b b7 ed 3b 86 25 fa 1d 7e 30 e9 3e
       6.621275e-21 0.0072545237 6.6213247e-21 0.4554481
000120 c3 5a 6c 3c 0b 25 fa 1d 33 79 29 39 0b 25 fa 1d
       0.014425936 6.621275e-21 0.00016162246 6.621275e-21
000130 0b 25 fa 1d a5 fb 4f 3e 0b 25 fa 1d fc c2 ff 3d
       6.621275e-21 0.20310839 6.621275e-21 0.12488362
000140 0b 25 fa 1d 0b 25 fa 1d 28 23 10 3e ca d2 72 3d
       6.621275e-21 6.621275e-21 0.14075911 0.059283055
000150 54 54 08 3d 61 ae 30 3e 3f 5e 39 3e 0b 25 fa 1d
       0.033283547 0.1725402 0.18102358 6.621275e-21
000160 0b 25 fa 1d f2 0e dc 3d 63 10 12 3d b1 94 05 3e
       6.621275e-21 0.10745038 0.03566016 0.13045003
000170 f3 74 f6 3b 6c 8e 0e 3e 0b 25 fa 1d b3 48 0c 3e
       0.0075212657 0.13921517 6.621275e-21 0.13699608
000180 c9 2a 8d 3c 0b 25 fa 1d 0b 25 fa 1d 95 db e6 3d
       0.017232316 6.621275e-21 6.621275e-21 0.11272351
000190 47 d5 cc 3d 0b 25 fa 1d 0b 25 fa 1d 10 8b 5e 3d
       0.10001617 6.621275e-21 6.621275e-21 0.05433184
0001a0 0b 25 fa 1d 11 0b 19 3e 93 d4 fe 3d 0b 25 fa 1d
       6.621275e-21 0.14945628 0.12442889 6.621275e-21
0001b0 0b 25 fa 1d 08 26 62 3c 39 b1 f4 3c 0b 25 fa 1d
       6.621275e-21 0.013803013 0.029869663 6.621275e-21
0001c0 0b 25 fa 1d f0 bb 99 3e 70 62 8c 3d 0b 25 fa 1d
       6.621275e-21 0.30026197 0.06854713 6.621275e-21
0001d0 0b 25 fa 1d 07 1e e0 3c d5 39 60 3e 0b 25 fa 1d
       6.621275e-21 0.027358068 0.21897061 6.621275e-21
0001e0 0b 25 fa 1d f1 2b fa 1d 0b 25 fa 1d 86 8a a4 3d
       6.621275e-21 6.6219883e-21 6.621275e-21 0.08034234
0001f0 15 ba ea 3c 8e be 9c 3d 59 04 c9 3d 8b 0c e9 3d
       0.028653184 0.07653533 0.098152824 0.113793455

conv2.bias f4 [64]
000000 dc 11 33 3d 5e 22 e9 bc 1f 2f b6 3c be 9c 7f 3d
       0.043718204 -0.02845877 0.022239266 0.06240534
000010 38 55 c3 3b c0 79 63 39 49 94 1f bd 19 52 1a bd
       0.0059610866 0.00021693762 -0.038959775 -0.03767595
000020 42 58 c4 3c bf 50 51 bd 78 f9 26 bd 25 0c 4f 3c
       0.023967866 -0.051102396 -0.040765256 0.012637173
000030 fa 00 a2 3b 92 4f f6 bc 2a 32 40 3c 85 9b 08 3d
       0.004943964 -0.030067239 0.01173071 0.03335144
000040 72 00 85 bc f2 59 07 3d f2 9e 85 bd a2 f6 e8 bc
       -0.016235564 0.033044763 -0.06524457 -0.028437916
000050 f7 a4 d8 3b a9 eb 2b bd 68 90 30 bd 84 60 5d bc
       0.006611462 -0.04197279 -0.043106467 -0.013511781
000060 ac 8a 32 3d 20 d6 84 3c 0c 70 83 bd cc 28 ae 3b
       0.04358928 0.016215384 -0.064178556 0.005314922
000070 7c 1b 2c bd 6c ec 8d 3d 48 a1 3f bb 6f fa 44 3d
       -0.0420184 0.069298595 -0.0029240418 0.048090395
000080 1c 93 47 3d ac 72 35 bd 5b d7 65 bd 8b 16 da 3b
       0.04872428 -0.044298813 -0.056113582 0.0066555194
000090 17 e6 42 3c 07 3f 6a bc 77 39 95 3d 18 64 f9 bb
       0.011895678 -0.014297253 0.07286351 -0.007610809
0000a0 df fe 43 3d e3 ca be 3c c5 bc c5 bc 55 98 a1 3c
       0.047850486 0.023290103 -0.024137864 0.019725958
0000b0 d0 35 e5 3a 5d 6b 22 bd 2d 27 b6 bc e8 3b 4f 3d
       0.0017487351 -0.03965317 -0.022235477 0.05059424
0000c0 58 b5 14 3d 2b 6d 90 bc 11 df 29 3d d0 e2 d3 3c
       0.036305755 -0.01763018 0.0414725 0.025864989
0000d0 ff 1f 8a 3d 7b e8 f5 bb 04 97 d2 3c 26 58 b7 bc
       0.06744384 -0.0075045205 0.025706775 -0.0223809
0000e0 f2 62 86 bd 11 a8 ed bb d8 af 28 bd 17 63 a3 bc
       -0.06561841 -0.007252701 -0.041183323 -0.01994471
0000f0 15 5c 39 3d a1 16 62 3c b2 1b b3 3c 77 f9 fc ba
       0.045253832 0.01379934 0.021863792 -0.001930042

conv2.lin.weight f4 [64, 128]
000000 67 c4 c8 bd c9 06 6f be 1b 65 bc 3d ec 32 e3 3c
       -0.09803086 -0.23342432 0.09198972 0.027734242
000010 db 5a c9 bd bc a1 3b be 54 1d 24 be b0 7a 21 3d
       -0.098317824 -0.18323416 -0.16026813 0.039423645
000020 c3 b3 dd 3d 48 fb 4d bc 8e 81 c7 3d b9 6f f0 bb
       0.108253025 -0.012572117 0.097415075 -0.007337537
000030 fa 66 80 3d 50 92 60 be 8d 8e 45 bc a7 1a f7 bc
       0.06269641 -0.21930814 -0.012057913 -0.030164076
000040 46 45 a6 3c 66 41 96 3d db dc a0 3c c3 2f cd 3d
       0.020296704 0.073366925 0.019636562 0.100188754
000050 1f c1 a2 bd 90 11 8d bd e3 a8 17 3e b8 e4 a6 3d
       -0.07946991 -0.068881154 0.14810519 0.081490934
000060 a8 f4 ca 3d 7f df f0 3d f1 73 05 3d 2f e5 24 be
       0.09909946 0.117613785 0.032581273 -0.16103052
000070 f3 dc 27 bd 50 40 4f be cd d8 08 bd 20 a3 4e bb
       -0.040982198 -0.20239377 -0.033409882 -0.0031530336
000080 9c 1f c5 3d d2 e6 32 3b 96 75 62 3d a1 40 98 3a
       0.0962517 0.0027298224 0.05528792 0.0011615941
000090 c8 90 05 3e 46 60 80 bd 8e 74 79 bd 6b 7a 2f bd
       0.13043511 -0.06268363 -0.06090217 -0.042841356
0000a0 31 a3 12 3c 71 62 11 3e 0b e0 87 3d 85 13 48 3d
       0.008950041 0.14197709 0.0663453 0.04884674
0000b0 f6 d5 9a bd 07 fd d7 bc c1 23 00 be 9d fe 37 be
       -0.07560341 -0.02636577 -0.12513639 -0.17968221
0000c0 d3 9f db bd 18 4f 36 3e b1 e5 41 3d c3 71 69 3c
       -0.107238434 0.1780361 0.04733819 0.014248314
0000d0 13 09 1b be cb d1 8f bd 14 cc f0 3d bd ed 09 be
       -0.1514018 -0.07022437 0.11757675 -0.13469596
0000e0 4b b8 47 3e 57 22 66 bc 1d c1 1e 3d 70 9e 38 be
       0.19503896 -0.014046273 0.038758386 -0.18029189
0000f0 c9 ff 24 be ea 62 7b bd 3a 83 b4 bd 7c 0d 8d 3d
       -0.161132 -0.06137363 -0.08814092 0.068873376
000100 64 26 88 bd b0 84 f5 bd 36 50 8d bb 08 eb bd 3d
       -0.066479474 -0.11988199 -0.0043125404 0.09273344
000110 56 db 00 3e 5f 41 0f 3d 81 2b f4 3d e6 e0 fb bc
       0.1258367 0.034974452 0.1192236 -0.030746888
000120 4a 4a 58 bd 27 88 e3 bd 8b 92 be 3d 34 b6 fa 3d
       -0.052805223 -0.111099534 0.093052946 0.12241784
000130 8d 14 16 3d 8e 33 9c bd 71 52 8e bd 15 92 6b 3d
       0.036640693 -0.07627021 -0.06949318 0.05751236
000140 0a b5 00 bd 3a 8d 15 bd 1b b0 20 bc 27 af 90 3d
       -0.031422652 -0.036511637 -0.009807612 0.07064658
000150 1d 91 8e bc 5c ca 9e bd 16 7d 11 3e 2f 44 d9 3c
       -0.01740318 -0.07753441 0.14207873 0.02652177
000160 74 b6 d1 bd a0 6a b8 3d 6f a5 f0 bb 88 07 df 3d
       -0.10239878 0.09004712 -0.00734394 0.10890108
000170 20 1f 87 3d ec f2 60 bd 50 db f4 bd c2 c2 a6 3c
       0.065977335 -0.05491917 -0.11955893 0.02035654
000180 3d 6e 89 3d c4 d9 91 bc 1d b6 87 bc 5d fd 6c bd
       0.067104794 -0.017804034 -0.01656633 -0.057858814
000190 5b a2 cc bd 32 ec 19 be 3b 25 1d be ee 67 42 3d
       -0.09991904 -0.15031508 -0.15346234 0.047462396
0001a0 37 11 cb 3d 79 38 8b bd 58 9e 82 be ec 0d 44 bd
       0.09915393 -0.06797881 -0.25511432 -0.04786484
0001b0 83 50 c5 3d a0 3f 0f be 77 49 e1 bd 52 91 25 3e
       0.09634497 -0.13989115 -0.110003404 0.16168717
0001c0 3f 6d a4 bd fb 63 38 be e3 e5 8f bc f9 e5 06 3e
       -0.080286495 -0.1800689 -0.017565673 0.13173665
0001d0 ed 7e d5 3b 15 33 12 be 85 07 46 bd 8a e1 dd 3d
       0.006515375 -0.14277299 -0.048347015 0.10834034
0001e0 e8 7d a4 bd 1c 48 a2 3d 91 ba 1b be f0 7c 29 be
       -0.08031827 0.0792391 -0.15207888 -0.16551566
0001f0 c3 02 0d be 4e 2c a7 bd 57 fa 84 3a 10 7b 03 3c
       -0.13770585 -0.08162747 0.0010145408 0.008024946
000200 55 7c b2 bd 73 45 13 3e ab 9e 43 3e 76 ae a0 bd
       -0.08715121 0.14381962 0.19103496 -0.07845776
000210 ac 9d f2 3d 70 d1 e8 3d af 13 f1 bd 09 25 bf bd
       0.1184648 0.11368072 -0.117713325 -0.09333236
000220 60 8e 40 3e 80 2c a9 3d b1 39 8b bb 91 fb 0a bb
       0.18804312 0.08260441 -0.0042488207 -0.0021207074
000230 57 94 5b be 28 2a a2 bc b0 fa d7 bc 46 98 c2 3d
       -0.21443306 -0.019795492 -0.026364654 0.095017
000240 2d 08 b1 bd 42 a5 e8 3c 19 ab ff bc b1 0d 48 3d
       -0.086441375 0.028399114 -0.031209515 0.048841182
000250 ca be c3 bc 5c 65 10 3e 40 b6 d2 3c 9f a4 7a bd
       -0.023894686 0.14101166 0.02572167 -0.06119215
000260 d4 e7 a4 bc a2 3e 1d be 3b 7f e2 bd bf bf 27 3e
       -0.020130076 -0.15355924 -0.110594235 0.16381739
000270 8f 1e 84 bd cb 2e bc bb 63 ee bf 3d da df 5f bd
       -0.06451141 -0.005742883 0.093716405 -0.05465684
000280 b5 21 b3 bd ce 74 19 be f6 db 42 bd b9 98 fd bd
       -0.087466635 -0.14985964 -0.047573052 -0.12382645
000290 cf 58 1e 3e b1 e6 e7 bc c5 9b 73 bd 3e 22 86 bd
       0.15463565 -0.028308244 -0.059474725 -0.065495
0002a0 ae be 29 3e 5b 29 83 bc 23 ba d0 bd 73 b7 3b be
       0.16576645 -0.01601093 -0.10191753 -0.18331699
0002b0 5e ae 82 bd d6 aa 3a be 5d 88 db 3d 42 f1 21 3d
       -0.06380914 -0.18229231 0.107193686 0.039536722
0002c0 e0 78 c2 bd 99 98 6e 3d d4 86 dd bd eb 33 05 3e
       -0.09495711 0.058250997 -0.10816732 0.13008086
0002d0 a4 db 2b be 63 06 06 be 07 9d 09 3e 2f 98 31 bd
       -0.16783005 -0.13088374 0.13438807 -0.043358024
0002e0 8e e8 24 bd 26 1f 3f be 30 2e dd 3d 10 7b 02 be
       -0.040260844 -0.18664226 0.10799825 -0.12742257
0002f0 47 78 90 3d e7 39 e5 bc 8d 78 a9 bd 42 1e fe 3d
       0.07054191 -0.027981712 -0.08274946 0.12408115
000300 a6 67 54 be 07 ca b7 bd 45 5e c3 3d 0d 30 d3 bd
       -0.20742664 -0.089740805 0.09539465 -0.10311899
000310 dd bc 03 3e fd ed ec bd 0f 47 7a 3c 13 3f 5e bd
       0.12865014 -0.1156883 0.015275731 -0.05425937
000320 79 99 01 be 29 04 bb 3d 32 c9 55 be 2e 50 06 3e
       -0.12656201 0.09131653 -0.20877531 0.13116524
000330 f0 89 b2 bd 7c 65 1d bc 0b 15 ce bd 94 d9 3d 3e
       -0.08717716 -0.009606715 -0.100626074 0.1854003
000340 8e 2f 37 3d 8c a0 99 bd f0 b6 06 bd 11 ac f5 bd
       0.044723086 -0.07501325 -0.032889307 -0.1199571
000350 d7 07 d6 3d ea c8 0a 3e bc 23 83 bd 76 82 2f bd
       0.10450714 0.13553205 -0.064033 -0.042849027
000360 65 12 21 bc ea fc 20 3e 03 fb d2 bc 66 28 98 3d
       -0.009831046 0.15721479 -0.025754457 0.074295804
000370 34 63 1d be 95 33 58 bc 86 6d 05 3d 12 21 ff bc
       -0.15369874 -0.013195892 0.032575153 -0.031143699
000380 ee d3 b6 3c 3f a0 9d bc b1 4c a7 bd 8a b6 b7 3d
       0.022317853 -0.01924145 -0.081689246 0.089703634
000390 84 bd 3c 3d b9 36 38 3e 25 22 86 3c 5d 59 c3 bc
       0.046079174 0.17989625 0.016373703 -0.023846323
0003a0 0e 02 96 3d c1 e7 ea bd 53 4f d6 3c 0c 47 4b 3d
       0.07324611 -0.11469985 0.026160872 0.049628302
0003b0 f2 b9 95 bd d7 8f 81 bd 72 12 a2 3d 6a bd 85 bc
       -0.07310857 -0.063262634 0.079136744 -0.016325671
0003c0 da 91 08 be d6 03 13 3e 66 d8 1c 3d 94 19 75 bc
       -0.13336888 0.14356932 0.03829231 -0.014959712
0003d0 b0 67 64 3e dd 5c 00 3e db 57 29 be 00 c1 0d bd
       0.22305179 0.12535425 -0.1653742 -0.034607887
0003e0 03 3a 0a be b5 a8 b9 3d 92 9d 27 3e 54 a6 c0 3d
       -0.13498692 0.090653814 0.16368702 0.094067246
0003f0 c2 ea 3a be 40 c5 19 bc 7d 60 a1 bd 35 c3 f4 3d
       -0.18253615 -0.009385407 -0.07879732 0.11951295

bn02.weight f4 [64]
000000 4e 92 77 3f ca 8f 7b 3f ee 09 80 3f cf 90 78 3f
       0.9670762 0.9826628 1.000303 0.9709596
000010 ef 1f 77 3f 09 76 78 3f e5 61 80 3f 64 da 80 3f
       0.965331 0.9705511 1.0029875 1.0066648
000020 02 e2 81 3f 06 02 81 3f 07 8e 77 3f 7f 87 83 3f
       1.0147097 1.0078743 0.9670109 1.0275725
000030 3b d7 77 3f e8 bb 7f 3f 90 be 76 3f c1 22 7f 3f
       0.9681279 0.998961 0.96384525 0.99662405
000040 a8 f9 71 3f 75 e0 80 3f 4a df 7e 3f f0 1c 80 3f
       0.9452157 1.0068499 0.9955946 1.0008831
000050 17 a4 82 3f a6 14 75 3f 0e 2b 79 3f d6 43 7d 3f
       1.0206326 0.9573463 0.9733132 0.98931634
000060 ae a6 7e 3f 20 dd 7d 3f bd 87 83 3f 7b 92 83 3f
       0.99473083 0.99165535 1.0275799 1.0279077
000070 51 7d 83 3f 5c 4b 81 3f 7d f8 7e 3f e5 43 84 3f
       1.0272619 1.0101123 0.99597913 1.033322
000080 5c 95 7e 3f aa 5c 82 3f fa 67 83 3f b8 47 7f 3f
       0.99446654 1.0184529 1.0266106 0.9971881
000090 50 e3 7e 3f 45 3a 70 3f aa b1 7b 3f b0 fd 80 3f
       0.995656 0.9383891 0.9831797 1.0077419
0000a0 dd 54 81 3f eb a2 7f 3f 8e a8 7b 3f b5 be 84 3f
       1.0104023 0.9985797 0.9830407 1.0370699
0000b0 a5 83 83 3f 1f e5 7c 3f d6 85 83 3f d8 4e 83 3f
       1.027455 0.9878711 1.0275218 1.0258436
0000c0 5a 90 7f 3f cd 9d 71 3f ed 54 7b 3f fa 4a 7b 3f
       0.9982964 0.9438141 0.9817646 0.9816128
0000d0 5d 90 7c 3f b2 59 74 3f ac e6 85 3f ae 39 82 3f
       0.9865778 0.95449364 1.046102 1.0173852
0000e0 a3 8d 81 3f ef 48 82 3f 7a 92 7a 3f d1 80 7f 3f
       1.0121349 1.0178508 0.97879755 0.99805933
0000f0 b7 0e 7a 3f 0a 76 80 3f fc d4 7b 3f 68 d4 7e 3f
       0.97678703 1.0036023 0.98371863 0.99542856

bn02.bias f4 [64]
000000 17 d1 4e 3d 47 77 47 bd 15 9c 63 3b f3 f3 26 bd
       0.050492372 -0.048697736 0.0034730483 -0.04075999
000010 b2 e4 ef 3c 8e f4 ca bc 88 e3 5e bd 6c 0e ad bc
       0.029283855 -0.024774816 -0.05441621 -0.021125041
000020 42 37 99 3d b1 3b 19 3d b9 94 76 bb 5c 63 9e bd
       0.07481243 0.03741044 -0.0037625267 -0.07733795
000030 97 01 8a 3c 3c 30 2d 3d bc 2a a2 bd 1a 29 4d 3b
       0.016846461 0.042282328 -0.07918307 0.0031305016
000040 eb 20 95 bd 9f 3c 2e 3d 83 b7 37 3b 8e e4 33 bd
       -0.07281669 0.04253828 0.0028032965 -0.04391914
000050 03 fb bf bc 49 57 0f 3b 05 ec 47 3c 6d 19 19 bc
       -0.023435121 0.0021872094 0.012202268 -0.009344441
000060 ea 88 bc bd cc 70 84 3d 30 40 a2 bd 74 21 72 3d
       -0.09205802 0.06466827 -0.07922399 0.059113935
000070 a2 4f d6 bc 2c 6b 9a 3d b5 aa 27 3d 50 01 c5 3d
       -0.026161019 0.07539973 0.040934283 0.09619391
000080 e7 bc 01 3d 36 c7 15 bd ed f0 8d 3d 86 ec 97 3d
       0.031674292 -0.036566935 0.069307186 0.0741816
000090 0a c0 58 3c 61 44 07 bd 8d 52 57 bd b9 8c 42 bd
       0.013229379 -0.033024196 -0.05256896 -0.047497485
0000a0 38 e1 f9 3c 97 87 a3 3b 64 97 b3 3c 2a b2 12 3c
       0.0305029 0.004990529 0.021922775 0.00895361
0000b0 48 fe 6e bc c5 15 80 3d 3a 0b 74 bd 7d 34 7e 3d
       -0.014586993 0.06254152 -0.05958102 0.062061775
0000c0 98 75 06 3d 01 14 79 bd 43 4a d8 bd 3d 31 75 bd
       0.03282699 -0.060810093 -0.10561039 -0.05986141
0000d0 2f 99 fa 3b 8c 79 0e 3e c5 f5 b9 3b 7e 20 24 bd
       0.0076476554 0.13913554 0.00567505 -0.04007005
0000e0 43 95 cb 3b dc 17 89 bd 11 74 62 bd e1 cb f5 bb
       0.0062128617 -0.06694004 -0.05528647 -0.007501111
0000f0 3c 03 0c bd 51 69 ea 3b c5 4d 94 bc 51 a7 95 bd
       -0.034182772 0.007153668 -0.01810349 -0.07307304

bn02.running_mean f4 [64]
000000 27 ec 23 3f 83 ca e7 3e 43 4e 37 3f fe 11 1a 3f
       0.64032215 0.45271692 0.7160379 0.60183704
000010 92 f9 05 3f 66 0f c3 3e 45 53 dc 3e 81 24 99 3e
       0.5233394 0.38097686 0.4303228 0.29910663
000020 d4 5b 70 3f d9 cd b2 3e fc 57 d5 3e 40 33 17 3f
       0.9389012 0.34922674 0.4166869 0.59062576
000030 fa 80 38 3f bf a2 1c 3f 34 41 0f 3f e4 7e 71 3e
       0.720718 0.6118583 0.5595887 0.23583561
000040 14 87 a2 3e 59 de 88 3e db e0 9f 3e 9d aa 6c 3e
       0.3174368 0.26732138 0.3122624 0.23111959
000050 60 dd ce 3e 03 9b eb 3e 04 5f 80 3e 16 4c 77 3e
       0.4040327 0.46016702 0.2507249 0.24150118
000060 05 a3 04 3f 0f ff 18 3f 44 d7 90 3e a9 d4 0e 3f
       0.5181125 0.5976419 0.28289235 0.55793244
000070 df 74 98 3e 56 e7 6c 3f 34 cc 0c 3f 0f 9c 68 3f
       0.29776666 0.9254049 0.5499909 0.90863127
000080 0c af 3d 3f a3 32 87 3e 0d 27 3f 3e 27 fc b3 3e
       0.74095225 0.2640582 0.1866724 0.35153314
000090 6b 21 10 3f 4e 20 86 3e cc 41 05 3f d2 c3 4a 3f
       0.5630099 0.26196522 0.52053523 0.7920505
0000a0 b1 f3 cb 3e d8 ef f6 3e 6f 8a 34 3e 48 ca 58 3f
       0.3983436 0.4822986 0.17630933 0.84683657
0000b0 b7 3c b4 3e 24 e7 a9 3e 15 ce 78 3e bd 4c 51 3f
       0.35202572 0.3318416 0.24297364 0.8175772
0000c0 6a 28 9e 3e d4 85 d0 3e 6a b1 ef 3e a9 14 32 3f
       0.30890208 0.40727103 0.46815044 0.69562775
0000d0 96 4d 0f 3f f4 08 bf 3e c7 47 50 3f c9 66 1a 3e
       0.5597776 0.37311518 0.81359524 0.15078272
0000e0 aa 7b 2d 3e 7b 97 ef 3e 91 7a 91 3e 9c 02 0b 3f
       0.16941705 0.46795258 0.28413823 0.54300857
0000f0 c8 b5 53 3f 38 af 30 3f ef dc 28 3f 61 ea 02 3f
       0.8269925 0.6901736 0.6596212 0.51138884

bn02.running_var f4 [64]
000000 3d cb d3 3e 06 d9 06 3f 52 26 41 3f 41 62 9e 3e
       0.41365996 0.526749 0.754491 0.30934337
000010 0f 99 0d 3f c3 39 1d 3e 17 7c 15 3f 02 26 bf 3e
       0.55311674 0.15354066 0.5839247 0.37333685
000020 78 3e 8b 3f 99 65 f3 3f 76 8b ec 3e 2f f3 31 3f
       1.0878439 1.901538 0.4620015 0.69511694
000030 c8 b6 29 3f a6 97 5e 3f 8a 16 1f 3f 1b b6 f1 3d
       0.6629453 0.8695015 0.62143767 0.11802312
000040 53 29 b9 3e 12 bc a0 3e b8 97 bb 3f ce c1 62 3f
       0.3616434 0.31393486 1.4655676 0.8857697
000050 a0 36 5e 3e 73 8e 0a 3f f5 56 5c 3f 0d e5 66 3e
       0.21700525 0.5412361 0.86070186 0.22548313
000060 a6 fa 1d 3f cd 97 19 3f 7b 03 9c 3e 62 46 b8 3e
       0.61710584 0.59997255 0.30471405 0.35991198
000070 43 8f ac 3e b6 05 52 3f 22 bf 81 3f db 94 43 3f
       0.3370305 0.82039964 1.0136454 0.7639901
000080 af 3e fe 3e 88 18 3e 3f ef ff 26 3e fb 35 8d 3e
       0.496572 0.7425618 0.16308568 0.27580246
000090 43 03 37 3f 07 26 4c 3e 8c 78 64 3e 60 93 a7 3f
       0.7148935 0.19936381 0.2231161 1.309185
0000a0 f3 b5 8f 3e 93 de cb 3e d5 ee 0e 3f 9a 05 3f 3f
       0.28068504 0.39818248 0.5583318 0.7461792
0000b0 63 ce b1 3e b1 ce 99 3e ed 2c 21 3e a5 4c 1e 3f
       0.34727773 0.30040506 0.15739794 0.618357
0000c0 52 03 a5 3e ac c9 c0 3e a4 03 7f 3e fe a9 6e 3f
       0.32229096 0.37653863 0.24903733 0.9322814
0000d0 ec ea c4 3e e4 e3 a9 3e f4 ca 3d 3f c9 5c a1 3e
       0.3846048 0.3318168 0.74137807 0.31516102
0000e0 ef 92 37 3f 9f b4 23 3f f8 dd 28 3e 9e f5 71 3f
       0.7170858 0.6394748 0.16490924 0.9451541
0000f0 e3 15 3e 3f 22 4f 89 3f cf a2 02 3f 1e cd 22 3f
       0.74252146 1.0727274 0.51029676 0.63594234

conv3.bias f4 [64]
000000 6d 6b f8 3c 1b d9 36 bd 96 b6 b2 3c 24 1f bb ba
       0.030324662 -0.04464064 0.02181558 -0.0014276248
000010 df 7c a3 bd 49 ae 91 bd d5 63 da 3c 36 d5 59 bc
       -0.07982802 -0.071133204 0.026658932 -0.013295462
000020 38 79 a7 bc 0f 9b b1 bd 0c 85 93 3b 55 e9 46 bc
       -0.020443544 -0.08672153 0.0045019444 -0.012140592
000030 0e ef 49 3d 84 6d 0e 3d b7 2e c5 bc d9 df db 3c
       0.049300246 0.03477241 -0.024070127 0.026840137
000040 22 f2 d8 bc dc 22 0b 3c 7a b0 a7 bd b4 71 50 bb
       -0.026482645 0.008492198 -0.08187957 -0.0031806054
000050 f3 3b 80 3c 0b 3d 1e bd 00 55 f0 bc 04 15 51 3c
       0.015653586 -0.038632434 -0.029337406 0.012761358
000060 b7 29 95 3c 53 5c fb 3c f6 df 06 3d 16 57 2d 3d
       0.018208368 0.030683672 0.03292843 0.04231938
000070 26 12 d8 bb 1b 49 87 3d 19 d6 12 3d e8 39 18 3d
       -0.0065939603 0.06605741 0.03584871 0.0371646
000080 1a 6f 8c 3c d3 e9 08 bd 1f 8f 2c bc 4f d2 6b bd
       0.017142821 -0.033426117 -0.01053217 -0.057573613
000090 4b bb bc 3c 8d b2 23 3d 6c f8 44 bc 71 e8 ce 3c
       0.023038527 0.0399652 -0.012022119 0.025257321
0000a0 ba 33 f6 bb 5b 3d 6d 3d 54 44 00 bd 2f 15 d7 3b
       -0.0075134905 0.05791984 -0.031315163 0.0065638046
0000b0 2a b2 2e bc da 51 93 3d c8 fe 48 3c 9c 4d 2f 3b
       -0.010662595 0.07193346 0.012267776 0.002674914
0000c0 96 42 67 ba 23 7f 4b bd ba 98 19 bd c4 bf 15 3d
       -0.0008821873 -0.049681794 -0.037499167 0.036559835
0000d0 03 6e 6c 3c 61 84 80 bc c0 6a 1c 3d 5d 38 0a bd
       0.014430526 -0.015688123 0.038187742 -0.03374516
0000e0 69 29 02 3d 46 27 aa bb d7 2a 12 3d 4d b5 96 bc
       0.031777773 -0.00519267 0.035685387 -0.018396998
0000f0 3b 93 66 bc 40 4c c7 3c f4 51 8f 3c f4 61 a3 bd
       -0.014073188 0.024328351 0.017495133 -0.079776675

conv3.lin.weight f4 [64, 64]
000000 80 65 17 be cd b2 ff 3d 8f 32 e5 bd 48 20 67 bc
       -0.14784813 0.124852754 -0.11191284 -0.014106818
000010 42 59 47 be 63 8b c0 3d c4 86 01 be 16 12 49 3d
       -0.19467643 0.09401586 -0.12649065 0.049089514
000020 5a e1 df bd fe d0 ff bd 30 6b 51 3c 5d 48 54 be
       -0.10931654 -0.12491034 0.012781903 -0.2073073
000030 44 35 0c be 8b ae 6c be 2f 7f 36 bd f7 09 2c bd
       -0.13692194 -0.23113458 -0.044554885 -0.04200169
000040 27 9d 60 3c 86 4e de bd 56 1a 11 3e 8f 25 fa bd
       0.013709343 -0.10854821 0.14170203 -0.12214195
000050 56 65 38 be a0 7f 6d be 7a 8f 0b be 23 29 ff 3c
       -0.18007407 -0.23193216 -0.1362895 0.031147545
000060 8f f8 89 3d 63 c4 21 3e b2 3b 08 3d e8 c5 69 bd
       0.06736862 0.15797572 0.033260055 -0.057073504
000070 47 ec 54 be 00 3e 30 3e 04 ab 09 be 37 a2 1d 3d
       -0.20793258 0.17211151 -0.13444144 0.03848478
000080 fa 4c bb bd 14 75 10 be f9 a0 39 3e f6 71 c9 3c
       -0.091455415 -0.14107162 0.18127812 0.024590474
000090 45 70 38 be 44 0f 97 bd 08 36 17 be 3a 6d 32 3d
       -0.18011577 -0.073759586 -0.14766705 0.043561198
0000a0 be c7 75 3d 99 07 d5 3c 7d 81 95 3d 3e 62 44 be
       0.060004942 0.0260046 0.073000886 -0.19178101
0000b0 fe b9 40 be a6 78 31 be 3f 80 3d 3e 2d af f2 bb
       -0.1882095 -0.1733118 0.18505953 -0.0074061365
0000c0 73 84 70 bd 4e d8 8b 3d ae b7 87 bd 38 66 2d 3e
       -0.058720063 0.06828366 -0.06626831 0.16933525
0000d0 0c 49 ee 3c 8a f9 9d bc 88 48 5b be 34 47 2a 3e
       0.029087566 -0.019284029 -0.21414387 0.16628724
0000e0 fe 53 1a 3e 3a 57 b9 bd e3 92 2e bd 36 8a 97 3d
       0.15071103 -0.0904984 -0.04262055 0.073994085
0000f0 bb 15 1d 3e 4b 98 31 bd c2 c4 16 be 28 9d bd bd
       0.15340321 -0.04335813 -0.14723495 -0.09258491
000100 e3 f1 12 be 91 46 33 3e 32 d2 0d be 5b 34 4a 3e
       -0.14350085 0.17507388 -0.13849714 0.19746535
000110 dc c0 51 be 5c 0d 4f 3c ab 86 10 3e fa 7c 16 be
       -0.20483726 0.0126374625 0.14113872 -0.14696112
000120 e6 ef eb bd 80 3a cf bd ca 20 b6 bb 1a 44 25 3e
       -0.11520366 -0.1011858 -0.005558108 0.1613926
000130 12 a7 11 3d f6 5e 5a be 2e 9b 54 3e 0d ea 20 be
       0.03555972 -0.21325287 0.20762321 -0.15714283
000140 e4 c6 ce 3d ae de 1c be 50 29 53 be d6 a5 1e 3e
       0.10096529 -0.1531932 -0.20621228 0.15492949
000150 b1 53 aa 3d 17 be c9 bd 7f fb e2 bc 64 4e 98 ba
       0.08316744 -0.0985071 -0.027707813 -0.0011620042
000160 04 9b 1c bd a1 9c c8 bd 6f 7a 00 be 2d 3b d8 bd
       -0.038233772 -0.097954996 -0.12546705 -0.10558162
000170 52 c0 3c bd 65 56 39 be 88 7e b4 bc 43 d7 45 be
       -0.04608185 -0.18099363 -0.022032991 -0.19320397
000180 e3 94 44 3e ad b2 3f be 20 39 70 bc 4e 5a 8c 3c
       0.19197421 -0.18720503 -0.014662057 0.017132904
000190 c8 f0 c6 bb 0c 0d e4 3c b3 4f 4c be 1c af 61 bd
       -0.006071184 0.027838252 -0.19952278 -0.055098638
0001a0 b2 73 d3 3d f9 99 02 3e 8e 63 43 3e 6a 23 23 be
       0.103248015 0.12754048 0.19080946 -0.15931478
0001b0 8f d9 81 ba 73 ad 59 bd 6a c1 08 3e 33 f2 41 bc
       -0.0009906756 -0.05314393 0.13355032 -0.01183753
0001c0 76 89 e1 bd 93 d4 96 bc ec 7e 0b 3e 97 66 1e 3e
       -0.11012547 -0.01841191 0.13622636 0.15468822
0001d0 a9 ee 5d 3e 19 02 c5 bd fa ea 21 be 18 ed 02 3e
       0.21673073 -0.09619541 -0.15812293 0.12785757
0001e0 29 3a 69 be fd dd 06 3e af bf 5b 3d 08 bb 18 be
       -0.22776093 0.1317062 0.0536496 -0.14915097
0001f0 91 eb 9f bd d1 c0 6d bd c7 ff ad 3d 8f 5f 9d 3d
       -0.078086026 -0.058045212 0.08496051 0.07684242
000200 d7 af 09 3e 78 f9 3d be 56 2f f4 3d 47 e1 b4 3d
       0.13445984 -0.18552196 0.11923091 0.08832031
000210 6f 3b 16 bd ef 2c f6 3c 61 a2 06 3e 79 da 27 3e
       -0.036677774 0.030050723 0.1314788 0.16391934
000220 5f 4a 3e be cf 5e 5c 3d 74 a6 e0 bd 82 3c 08 be
       -0.18583058 0.053801354 -0.109692484 -0.13304332
000230 8c 93 a5 3d 9a 42 30 bd 03 69 f1 3d d5 9f 32 3e
       0.08084783 -0.043032266 0.117876075 0.17443784
000240 0a 83 93 bd 0b 75 4d be ee 3d 9f 3c 12 26 49 3e
       -0.07202728 -0.2006418 0.01943871 0.19643429
000250 7b 04 9c 3d dc 5a 3a be 7f e0 28 be 34 25 b9 3d
       0.07618042 -0.18198723 -0.16491888 0.09040299
000260 16 00 06 be 7d e9 1b be 78 f8 6c be 0f 99 00 bd
       -0.1308597 -0.15225787 -0.23141658 -0.031395968
000270 46 1e 83 bd 78 7e 88 3c 45 bc 04 3e ef 68 03 be
       -0.064022586 0.016661867 0.12962444 -0.12832998
000280 58 44 30 3d 36 ee 72 bd 70 a8 8a 3d 2c 76 49 3c
       0.043033928 -0.059309207 0.06770408 0.012296241
000290 a9 d3 70 3c 40 40 41 3e 14 c7 93 3d 3e 99 f1 3d
       0.014698901 0.18872166 0.072157055 0.11796807
0002a0 5b 28 9e 3d 5e f7 3c be 67 56 19 3e 31 39 b7 3d
       0.07722541 -0.18453738 0.14974366 0.08946455
0002b0 19 0a 3c be 2b a5 73 bd ee 26 0e be 84 0f 0c 3e
       -0.18363227 -0.05948369 -0.13882038 0.13677794
0002c0 c2 21 4c 3e da 8b fb 3b ea e3 6e be ea 7f 31 be
       0.19934753 0.0076765837 -0.2332913 -0.17333952
0002d0 60 3f d8 bc d0 a0 9d bd 3f f7 41 3d 2c 97 02 be
       -0.026397407 -0.07696688 0.047354933 -0.1275298
0002e0 fb d7 69 3d 59 cd 59 bd a2 cf 27 be 2c bc 31 be
       0.05709074 -0.05317435 -0.163878 -0.17356938
0002f0 52 a3 44 3e 45 2b 4b 3d 6f 06 42 3e 33 f8 a2 bd
       0.19202927 0.049601812 0.18947767 -0.079574965
000300 ad c6 90 bd 86 5a 2b be 6e 89 f7 3d 21 d1 9c bd
       -0.070691444 -0.1673375 0.120867595 -0.07657076
000310 f8 75 05 3e 98 6a 02 be 0c 53 49 3e 0a 2c 2d be
       0.13033283 -0.12735975 0.19660586 -0.16911331
000320 d5 50 9b bd 2e 2d 9b bd 3b 8c 98 bd 7f 51 a7 3d
       -0.07583777 -0.07576977 -0.07448622 0.08169841
000330 d3 9c 36 be 88 e0 0b bd c2 fe d3 3d 80 9c 29 3e
       -0.17833261 -0.034149677 0.103513256 0.16563606
000340 0c 3b 20 3e 8c f6 31 3c 3b e9 31 3e 52 a2 fd 3c
       0.15647525 0.010862004 0.17374127 0.03096119
000350 0a eb fb bd c6 5b d1 3d af 91 c6 bc f0 b3 53 3e
       -0.123006895 0.102225825 -0.02423939 0.2067411
000360 eb 43 2e bd c7 e2 a3 3c c8 4a 20 be 83 54 62 be
       -0.04254524 0.020005597 -0.15653527 -0.22102551
000370 ff ee fe bc 21 40 34 be 0c 46 58 3e 91 36 1b 3e
       -0.031119822 -0.17602588 0.21120471 0.15157534
000380 29 79 26 be 6c 28 de 3d 12 ea d4 bd e6 20 34 3e
       -0.16257156 0.108475536 -0.10396208 0.17590675
000390 84 9e 49 be 3e 1a 21 bb d5 32 34 bd f2 6b 46 be
       -0.19689375 -0.0024582292 -0.04399379 -0.19377115
0003a0 ea e1 de bd db 6a 3d be e6 ea 7c 3d 1c f3 4c be
       -0.108829334 -0.18497793 0.061747454 -0.20014614
0003b0 93 43 af 3d 84 cf 4b 3e 32 35 76 bd 76 ad 41 be
       0.08557811 0.1990338 -0.060109325 -0.18913826
0003c0 09 2d 8f 3d 57 e4 65 bd 58 bf 30 be d7 56 b5 3d
       0.06991012 -0.056125965 -0.17260492 0.08854454
0003d0 83 bc 23 be 08 ad 33 3e ba 5d 04 39 fb be 54 3d
       -0.1598988 0.17546475 0.00012623417 0.051939946
0003e0 dc 37 69 3e fb e3 c9 3d 98 9d cb 3c 93 3d 65 3e
       0.22775215 0.09857937 0.02485542 0.2238677
0003f0 e1 05 49 be 45 77 8c bd 2d c1 6c be 63 95 3d 3e
       -0.19631149 -0.06858686 -0.23120566 0.18514018

bn03.weight f4 [64]
000000 52 1b 84 3f c0 0e 7b 3f 25 b2 7f 3f 1e 50 7b 3f
       1.0320837 0.9806938 0.998812 0.98169124
000010 00 60 77 3f ac 68 76 3f 4d bd 7e 3f b1 1c 78 3f
       0.9663086 0.96253467 0.995076 0.9691878
000020 d4 2c 7a 3f 3e 3c 71 3f dd 7e 7d 3f 79 77 7c 3f
       0.9772465 0.9423255 0.99021703 0.986198
000030 02 e1 7d 3f dd a2 7d 3f 2a f3 7a 3f 47 3f 7b 3f
       0.9917146 0.99076635 0.9802729 0.9814343
000040 7a 15 7b 3f 87 e0 80 3f 47 b5 78 3f 15 b7 79 3f
       0.98079646 1.006852 0.9715161 0.97544986
000050 91 4c 7c 3f fe ff 73 3f ca f3 74 3f 48 7a 79 3f
       0.9855433 0.9531249 0.9568449 0.9745221
000060 43 9a 73 3f 5a 08 7b 3f 98 06 7f 3f 0f 35 81 3f
       0.9515726 0.9805962 0.99619436 1.0094317
000070 38 30 7c 3f 54 3d 82 3f 99 28 80 3f 1d e4 7f 3f
       0.98511076 1.0174966 1.001239 0.9995745
000080 90 87 84 3f da 8b 6d 3f b5 85 78 3f f7 6b 77 3f
       1.035387 0.9279152 0.9707902 0.96649116
000090 d4 f3 7e 3f b6 56 7f 3f a4 0f 78 3f ec 2f 84 3f
       0.995908 0.99741685 0.96898866 1.0327125
0000a0 a7 35 82 3f 5f bd 80 3f 79 16 79 3f fa 09 79 3f
       1.0172623 1.0057791 0.97299916 0.9728085
0000b0 a8 a5 7c 3f 0a d5 81 3f c4 56 79 3f e0 75 7b 3f
       0.9869027 1.0143139 0.9739802 0.9822674
0000c0 44 77 7f 3f 2e 07 77 3f 99 e1 7c 3f 73 93 78 3f
       0.9979136 0.9649533 0.98781735 0.9709999
0000d0 69 e6 7e 3f 14 b9 7a 3f 27 67 86 3f e2 cf 79 3f
       0.9957033 0.97938657 1.050023 0.9758283
0000e0 af c9 78 3f f4 b8 82 3f 6b ce 7a 3f c6 95 7b 3f
       0.97182745 1.0212693 0.9797122 0.9827541
0000f0 6a 12 82 3f cf fa 82 3f 5b a0 80 3f 9d 06 7c 3f
       1.016187 1.0232791 1.0048937 0.9844759
