model_checkpoints/graphLambda__hdim_64_batch_32.pt (torch, 783722 bytes, 71 tensors)

conv1.bias f4 [128]
000000 7e 97 22 bb fc 27 46 bc 27 d4 03 bc 82 ac 8f bc
       -0.0024809535 -0.012094494 -0.0080461865 -0.017538313
000010 fe 8e 76 3c 99 15 a8 bb a1 39 4a bc 00 00 00 00
       0.01504874 -0.0051295278 -0.012342841 0.0
000020 61 ad 66 3b 85 8b 4b 3b bd 1f 05 3a 41 7d a2 3c
       0.0035198557 0.0031058502 0.0005078277 0.019835116
000030 dd ab 98 bb 8b 75 30 3c 00 00 00 00 00 00 00 00
       -0.0046591596 0.010770212 0.0 0.0
000040 48 84 ec 39 5d af d6 bb b1 c1 95 3c 87 cb a8 bc
       0.00045111985 -0.0065516667 0.018280836 -0.020604862
000050 15 fd 89 bb 9b eb e4 ba 1f de 8b bb 00 00 00 00
       -0.004211078 -0.0017465235 -0.0042684223 0.0
000060 a2 e9 20 39 61 40 9f 3b ab 0b 25 bb 5e 60 25 bc
       0.00015345824 0.0048599695 -0.0025183957 -0.0100937765
000070 5b 7c 2a 3c 31 d8 5f bb 3d de 6d bc 00 00 00 00
       0.010405625 -0.003415596 -0.014518318 0.0
000080 ea f2 7f bb 0c 9b 59 3b cc 25 64 b9 2f 26 ef bb
       -0.00390547 0.0033203987 -0.00021757855 -0.007298253
000090 e9 05 7f b9 eb 0e 9a 3c 44 06 e3 ba 00 00 00 00
       -0.00024320897 0.018805942 -0.0017320593 0.0
0000a0 37 93 11 3b 3b 3b 91 bb 5d d0 d8 ba 4c ff 8c 3a
       0.002221299 -0.0044321097 -0.0016541589 0.0010757237
0000b0 00 00 00 00 37 17 83 bc 00 00 00 00 00 00 00 00
       0.0 -0.01600228 0.0 0.0
0000c0 00 00 00 00 d5 2a 73 ba 85 00 06 bc 5a 3c 93 bc
       0.0 -0.0009276097 -0.008178835 -0.017973114
0000d0 5a 54 36 bc 37 ba 9b 3a 00 00 00 00 8f 68 87 3c
       -0.011128509 0.0011881058 0.0 0.01652935
0000e0 00 00 00 00 00 00 00 00 bd 1f b8 bc c7 bd 47 ba
       0.0 0.0 -0.022476071 -0.00076195266
0000f0 ac ed 43 b9 a0 0b ec 37 00 00 00 00 50 02 aa 3c
       -0.00018685189 2.8138806e-05 0.0 0.020753056
000100 00 00 00 00 0b ff 2b 3b 00 00 00 00 ab 37 63 3c
       0.0 0.0026244547 0.0 0.013868253
000110 1d e4 b6 bb 00 00 00 00 71 b0 7a ba 5a a6 dd b9
       -0.0055813924 0.0 -0.0009563035 -0.00042276346
000120 1a 21 48 3b 00 00 00 00 9a ca 25 ba d0 8d 9e bc
       0.0030537308 0.0 -0.00063244405 -0.01935473
000130 9f c7 0e ba 69 5a 02 bc 94 42 b3 bc 08 e9 ea 3b
       -0.0005446616 -0.007956126 -0.021882333 0.007168893
000140 00 00 00 00 00 00 00 00 36 0b 27 bc d9 2f a1 bb
       0.0 0.0 -0.010195544 -0.004919034
000150 f2 04 5d 3c 7e 4c f2 bb ef 14 25 3c 53 4d 06 bb
       0.013489949 -0.0073943725 0.010075792 -0.0020492866
000160 89 3a 8c 3c e9 2d ef bb 65 31 97 bb 00 00 00 00
       0.017117755 -0.007299174 -0.0046140426 0.0
000170 00 00 00 00 1d ad 02 bc 50 c0 10 3a 13 04 eb 3c
       0.0 -0.007975844 0.0005521821 0.028688466
000180 9c 01 96 ba dc 6f f9 3b d3 fa 10 3a 0b 02 3f 3a
       -0.0011444571 0.0076122116 0.000553054 0.0007286376
000190 92 08 7d 3c 51 c8 cd 3b a8 ad 5b bb ca cb 04 3b
       0.015443938 0.006279983 -0.0033520255 0.002026307
0001a0 c3 66 25 bb 00 00 00 00 f7 92 c1 bb 46 b5 86 bb
       -0.0025238253 0.0 -0.005907412 -0.004110965
0001b0 00 00 00 00 4e 9c 2e 3c d9 1c ae bc b2 f1 8b bc
       0.0 0.010657383 -0.02125399 -0.017083023
0001c0 82 0f fe ba 4b 07 aa 3a 42 f3 a3 bc 00 00 00 00
       -0.0019383284 0.0012972144 -0.020013455 0.0
0001d0 00 00 00 00 74 d1 df ba c7 7c 71 3c 45 98 51 3b
       0.0 -0.0017075972 0.014739222 0.003198163
0001e0 00 00 00 00 fb 0b 4e bc 93 3c 33 bd 00 00 00 00
       0.0 -0.012576099 -0.04375894 0.0
0001f0 62 50 42 3c 00 00 00 00 39 54 80 bb c8 46 69 bc
       0.011859985 0.0 -0.00391629 -0.014238067

conv1.lin.weight f4 [128, 9]
000000 25 c7 ae 3d c1 72 fb 3d 14 a6 64 3b bf 76 8e bd
       0.085340776 0.12277747 0.003488903 -0.06956243
000010 8a 95 07 3e bb da 26 be 78 0c 61 bc 68 c4 48 3e
       0.13240638 -0.16294377 -0.013735883 0.19606173
000020 c7 1d 34 3e 11 4b 76 3c 45 60 54 be 0e 4a f5 bd
       0.17589484 0.015032546 -0.20739849 -0.119770154
000030 fc 57 1c 3d c8 ba e9 3d 7a 45 5b 3d 3a 4a fa 3b
       0.038169846 0.11412579 0.053533055 0.007638243
000040 f5 d3 f2 3c f3 6d f8 bc b1 c5 50 bb 19 29 35 be
       0.029642085 -0.030325865 -0.0031856115 -0.17691459
000050 46 f3 49 be 10 a3 13 bc 39 51 45 be ee 1c 3f 3e
       -0.19721708 -0.009011045 -0.19269265 0.1866338
000060 11 ee 93 bd c6 8c ba 3d 36 ec 2e 3e 8b 05 86 3d
       -0.07223142 0.09108882 0.17082295 0.06544026
000070 7a e0 49 3e 0c 48 0a 3e 70 94 54 be c7 f9 33 3e
       0.19714537 0.13504046 -0.2075975 0.17575751
000080 5d 7a 0d 3e 7a 6a 56 3d 86 2c 1b bc d6 50 06 3e
       0.13816209 0.052347638 -0.009471064 0.13116774
000090 54 94 bb 3d ac 2b c7 bc f2 ec 5e 3d 4b 51 17 bd
       0.09159151 -0.024312817 0.054425187 -0.03694276
0000a0 5d 4e 84 bd ba 30 3d 3e a2 c4 54 bd f4 cb 98 bd
       -0.06460259 0.18475619 -0.051945336 -0.07460776
0000b0 c5 80 66 be a5 e9 18 be 90 8a 54 3d de 9d 17 be
       -0.22510059 -0.14932878 0.051889956 -0.14806315
0000c0 c3 41 1f 3e b7 a8 0a 3e ec b4 2b bd 22 22 0f 3c
       0.1555243 0.13540922 -0.041920587 0.008736165
0000d0 5e 49 44 be 7d 1e 31 be 3a 79 82 bc 79 43 d7 bc
       -0.19168612 -0.17296787 -0.015926946 -0.02627729
0000e0 74 4e 2c 3a 20 5f 12 3e 5f 78 33 3e 8c e3 b3 3d
       0.000657297 0.142941 0.17526387 0.087836355
0000f0 13 a0 25 3e 73 fe a9 3d 68 09 5b 3a a5 49 51 be
       0.16174345 0.083004855 0.00083555887 -0.2043825
000100 fa e9 55 3e 7c ac 83 bb 58 5a 38 be be 5b 77 bc
       0.20890036 -0.0040183645 -0.18003213 -0.015097557
000110 5f 15 e5 bd c7 60 e9 3d 38 49 d2 bb 43 25 31 be
       -0.11185717 0.11395412 -0.0064174198 -0.1729937
000120 83 10 1c 3d 5a 1c 35 3c 53 c9 cc 3d 4e 5d 35 3c
       0.038101684 0.011054123 0.09999337 0.011069609
000130 ff 14 ff bd 86 64 45 bc 27 c9 e5 3d 3f 8e 6b be
       -0.124551766 -0.012047892 0.112200074 -0.23003481
000140 fb 6c 09 be ec db 47 3e 67 a9 1d 3e 5a 2e 18 be
       -0.13420479 0.19517487 0.15396653 -0.14861432
000150 fe d8 5a 3e 86 e6 ab bc ca 5f 6e bd 9c 16 89 3c
       0.21371838 -0.020983946 -0.05819682 0.016734414
000160 44 f2 06 3a 25 92 4a bd 33 12 38 3e bf 64 51 be
       0.0005147795 -0.04945578 0.17975692 -0.20448588
000170 9d 94 09 be 8b bc 3a 3e 88 d6 e0 3d fc 7e 22 be
       -0.13435598 0.18235986 0.109784186 -0.15868753
000180 9c aa 63 3d d3 68 3c 3e d2 9b 2e be 63 3a 08 3e
       0.055582628 0.18399362 -0.17051628 0.13303523
000190 61 ef f2 bd c1 d5 2a be 0c 95 4d 3c 16 91 be 3c
       -0.11862064 -0.16683103 0.012547743 0.023262542
0001a0 60 53 49 3e 1a a4 34 be 3a 95 ae bd 36 35 6e be
       0.19660711 -0.17640725 -0.085245565 -0.23262486
0001b0 b1 19 ee 3c 7d 9b 6b 3d bc 35 0b 3a 03 cb e9 3d
       0.029064985 0.057521332 0.0005310436 0.114156745
0001c0 75 5a ee bd 91 6c 96 3d 4f 0e 55 be ad 0d 0e be
       -0.11638347 0.07344926 -0.2080624 -0.13872404
0001d0 dd 16 1d bd 1e a6 85 3d 63 ba f8 3b b5 74 71 3d
       -0.038351882 0.06525825 0.0075905784 0.05894919
0001e0 0b cf 2c be a5 64 1d bd 26 04 9b bd 84 87 00 be
       -0.16875856 -0.03842606 -0.075691506 -0.12551695
0001f0 06 b9 b6 bc 5b 28 da 3d d3 52 bd bd c3 2f 45 3e
       -0.022305023 0.106522284 -0.09244313 0.19256501
000200 49 bc 42 3e 7f 07 d5 bd 96 6b 46 be fd 84 11 3d
       0.19017138 -0.104018204 -0.19376978 0.035527218
000210 a6 fd 98 bd f8 35 a2 bc 4a 3c 36 3e 3c f1 ad ba
       -0.074702546 -0.019801125 0.17796436 -0.0013270746
000220 32 73 27 3e a2 d3 51 3e c6 71 51 be d4 58 4b be
       0.16352537 0.20490888 -0.20453557 -0.19858104
000230 c4 2e b6 bd 18 27 f1 bd 04 0f c7 3d 52 59 80 3d
       -0.088956386 -0.11775035 0.09719661 0.062670365
000240 ab 47 3e 3e 50 47 82 bb 45 09 eb bd 06 aa 88 bd
       0.18582027 -0.0039757863 -0.114763774 -0.066730544
000250 4b fc 7c bd 9a e6 a1 bb 22 ba 08 3e a8 13 4a bd
       -0.061764043 -0.00494082 0.13352254 -0.049335152
000260 c4 f9 5e 3e 15 b2 76 bd fc aa 77 bd 15 88 5f 3d
       0.21774966 -0.060228426 -0.060465798 0.054573137
000270 f6 17 b3 3d 48 0a 9d bd 81 86 3b 3e 09 83 32 3e
       0.087448046 -0.076679766 0.18313028 0.17432798
000280 2e 80 88 bd 6f c0 b4 bd c0 b1 e5 bd 59 58 86 bd
       -0.06665073 -0.08825766 -0.11215544 -0.0655982
000290 df 23 55 3e 20 33 91 3d 6c ba 3d 3e f1 bf 85 3d
       0.20814465 0.070898294 0.18528146 0.065307505
0002a0 d3 57 67 3d 92 f1 0c be b4 ea 29 be 08 b3 c7 bd
       0.05648024 -0.13764027 -0.16593438 -0.097509444
0002b0 41 06 22 3d 17 60 01 bd f9 d4 00 3e 09 22 6c be
       0.039556745 -0.03158578 0.12581243 -0.23059858
0002c0 2c ff b3 bd ab bc e0 bd 76 fe f8 bc 74 9e c7 bc
       -0.087889045 -0.109734856 -0.030394774 -0.024367549
0002d0 1a bd e9 3d 95 80 c4 bd ff 36 48 3e ab 07 21 be
       0.114130214 -0.095948376 0.1955223 -0.15725581
0002e0 2a dd 48 bd 8d 7d c7 bc f8 74 30 3d 86 73 01 3e
       -0.049039043 -0.02435186 0.0430803 0.12641725
0002f0 73 93 df 3d bd 27 6a 3d b3 c4 96 bd 89 0e 1c 3e
       0.109167956 0.057166804 -0.07361736 0.1523992
000300 6b 1f a6 3c a6 7d 76 be 90 44 ea bd e7 d4 fa bc
       0.020278653 -0.24071369 -0.114388585 -0.030619098
000310 ce 8f 26 be 21 19 55 be 71 88 26 3d 5f eb 4e 3c
       -0.16265795 -0.20810367 0.040657464 0.012629359
000320 83 3e 2a bd f3 97 35 3e b1 d7 72 bd 0b 13 0d bd
       -0.041563522 0.17733745 -0.05928773 -0.03444199
000330 e5 71 49 be e5 59 dd 3d 73 db 17 3c b8 5d 44 be
       -0.19672354 0.10808162 0.009268629 -0.19176376
000340 45 07 fd bd 3b a5 27 be 8b 22 b0 bd 03 41 1a 3d
       -0.12354902 -0.16371624 -0.086003385 0.037659656
000350 d5 cc d5 bd c6 95 37 be c4 46 31 be 2c 44 ed 3d
       -0.10439459 -0.17928228 -0.17312151 0.115852684
000360 98 b5 d2 3d 21 71 be 3d 03 da 55 3d 79 50 3d 3e
       0.102885425 0.092989214 0.052209865 0.18487729
000370 0d f0 53 3d e0 1c 16 3e ba fe ee bb 0e 5f 31 bd
       0.051742602 0.14659452 -0.0072935494 -0.04330354
000380 cd 2a 6d be 54 cf 5d bd 79 05 d3 3d f7 e5 5a 3d
       -0.23160858 -0.0541528 0.10303778 0.053441968
000390 c6 31 92 bd ec 9c ff bd f4 50 f0 3d c2 c9 35 3e
       -0.071384 -0.12481102 0.117341906 0.17752746
0003a0 5e 8f 37 bd ef 6d 10 3e 5b 32 ef 3d 30 ec 95 bc
       -0.04481446 0.14104436 0.116795264 -0.0183011
0003b0 37 4c 21 be 83 ac 35 bc 7c df 7e 3d be bc 2b 3e
       -0.1575173 -0.011088493 0.06222485 0.16771218
0003c0 6a 82 2f 3c 17 cd 5b be d2 74 2a be b7 c4 70 bd
       0.0107122455 -0.21464954 -0.16646126 -0.058781352
0003d0 54 ee 3e be a0 26 8a bd 75 59 98 3d 91 5e 83 3c
       -0.18645602 -0.067456484 0.074389376 0.016036304
0003e0 e7 92 c1 3d 28 97 04 be 19 80 20 3e 28 cd 13 be
       0.094518475 -0.12948287 0.15673865 -0.1443373
0003f0 3f 1e cd bd 7b 1d 24 3c d3 79 82 3c 01 14 13 3d
       -0.100155346 0.010016794 0.015927231 0.03590775

bn01.weight f4 [128]
000000 ff 2c 7f 3f bb 77 7e 3f 01 a7 7d 3f a9 3d 82 3f
       0.99678034 0.99401444 0.9908295 1.0175067
000010 74 b0 7e 3f 75 44 7e 3f d7 8c 7a 3f d8 b5 7f 3f
       0.99487996 0.9932321 0.97871155 0.99886847
000020 0f 45 83 3f 42 7a 7a 3f 69 f8 80 3f e1 49 7b 3f
       1.025545 0.978428 1.0075809 0.98159605
000030 b6 28 77 3f 92 21 81 3f d8 b5 7f 3f d8 b5 7f 3f
       0.96546495 1.008837 0.99886847 0.99886847
000040 f7 a2 7e 3f 62 2d 7f 3f a1 8b 79 3f bd 2e 7d 3f
       0.99467415 0.99678624 0.9747868 0.9889944
000050 a7 fd 81 3f cc 93 80 3f 8c 1c 80 3f d8 b5 7f 3f
       1.0155534 1.0045104 1.0008712 0.99886847
000060 17 6f 80 3f 48 cb 7d 3f 7d d8 81 3f 60 28 7d 3f
       1.0033902 0.9913831 1.0144192 0.9888973
000070 4d ab 80 3f c0 17 80 3f 99 3f 82 3f d8 b5 7f 3f
       1.0052277 1.0007248 1.0175658 0.99886847
000080 c6 d9 7f 3f 6a 1c 83 3f 5f 36 81 3f 9a 00 81 3f
       0.9994167 1.0243046 1.0094718 1.0078309
000090 6b ae 7f 3f b4 92 81 3f 5d fb 7a 3f d8 b5 7f 3f
       0.99875516 1.0122895 0.980398 0.99886847
0000a0 ca 6a 80 3f 50 8c 7e 3f ac c9 80 3f c8 9b 7c 3f
       1.003259 0.9943285 1.0061545 0.98675203
0000b0 d8 b5 7f 3f 12 6f 7e 3f d8 b5 7f 3f d8 b5 7f 3f
       0.99886847 0.9938823 0.99886847 0.99886847
0000c0 d8 b5 7f 3f 0f 0a 81 3f 53 6a 7e 3f c5 4c 83 3f
       0.99886847 1.0081195 0.9938099 1.0257803
0000d0 7b f3 83 3f c2 09 7e 3f d8 b5 7f 3f 31 e3 77 3f
       1.0308679 0.9923364 0.99886847 0.9683104
0000e0 d8 b5 7f 3f d8 b5 7f 3f 1b f7 79 3f 2e 74 82 3f
       0.99886847 0.99886847 0.9764268 1.0191705
0000f0 89 0a 80 3f 25 c8 81 3f d8 b5 7f 3f bf aa 7b 3f
       1.0003215 1.0139204 0.99886847 0.9830741
000100 d8 b5 7f 3f 6d 46 7c 3f d8 b5 7f 3f 6d 10 7c 3f
       0.99886847 0.9854496 0.99886847 0.98462564
000110 38 c4 81 3f d8 b5 7f 3f 36 ad 7c 3f 61 a1 7c 3f
       1.0138006 0.99886847 0.987018 0.98683745
000120 52 18 7e 3f d8 b5 7f 3f 7e c4 7d 3f 99 24 83 3f
       0.9925586 0.99886847 0.9912795 1.0245544
000130 d5 bc 78 3f ba b9 7f 3f 2b ab 7d 3f 62 f6 7c 3f
       0.97163135 0.9989277 0.99089307 0.9881345
000140 d8 b5 7f 3f d8 b5 7f 3f 20 f5 7c 3f 64 b6 7b 3f
       0.99886847 0.99886847 0.9881153 0.9832518
000150 a1 b7 7c 3f b9 25 82 3f db 0f 81 3f ab f7 7c 3f
       0.98717695 1.0167762 1.0082964 0.9881541
000160 32 2e 83 3f e4 66 7d 3f aa 33 80 3f d8 b5 7f 3f
       1.0248473 0.98985124 1.0015767 0.99886847
000170 d8 b5 7f 3f 6d 57 7f 3f f0 b1 7f 3f 9d 92 7e 3f
       0.99886847 0.99742776 0.99880886 0.99442464
000180 f0 c1 7f 3f af e7 7f 3f 6e 97 7d 3f 60 51 7f 3f
       0.999053 0.99962896 0.9905919 0.99733543
000190 1a 1b 7a 3f 96 b9 7a 3f 77 4a 79 3f c4 48 7c 3f
       0.97697604 0.9793943 0.9737925 0.9854853
0001a0 ef 5e 7b 3f d8 b5 7f 3f 34 a7 7b 3f 5d d3 7c 3f
       0.9819173 0.99886847 0.98302007 0.98760015
0001b0 d8 b5 7f 3f 66 d3 80 3f 9c 2d 7d 3f b0 bb 83 3f
       0.99886847 1.0064514 0.9889772 1.0291653
0001c0 98 2f 7c 3f a2 cc 7d 3f e8 6e 84 3f d8 b5 7f 3f
       0.9851012 0.9914037 1.0346346 0.99886847
0001d0 d8 b5 7f 3f 25 a9 81 3f dc 1d 81 3f da 66 7c 3f
       0.99886847 1.0129744 1.0087237 0.9859444
0001e0 d8 b5 7f 3f 5e 44 83 3f dc 82 7d 3f d8 b5 7f 3f
       0.99886847 1.0255239 0.990278 0.99886847
0001f0 92 08 7c 3f d8 b5 7f 3f 21 b1 83 3f 65 a0 80 3f
       0.9845058 0.99886847 1.028843 1.0048949

bn01.bias f4 [128]
000000 6f 4d 63 bb 78 d3 80 3c 33 14 d6 3a 78 39 0d bc
       -0.0034683605 0.015725836 0.0016332924 -0.008619659
000010 82 98 34 3c 9a e3 98 bc ec bb eb 3c fc 7e f9 3b
       0.011022689 -0.018663216 0.028776132 0.0076140147
000020 5e 32 ea 3c 91 4f b1 3c 43 cd b9 bc 2b ca 20 3d
       0.02858847 0.021644386 -0.022680884 0.039255302
000030 92 01 8a 3c 09 09 9a bc 1f 4e 56 bd 59 7a 89 bc
       0.016846452 -0.018803136 -0.052320596 -0.016781973
000040 5d 7f 84 bc f2 c5 1f 3d 9c d1 a1 bb a0 a3 b0 3c
       -0.016174013 0.039007135 -0.0049383175 0.021562397
000050 3d 2d 25 bc 01 59 06 bc 3c c5 92 3b 30 08 a0 3c
       -0.010081586 -0.008199931 0.0044790786 0.019535154
000060 75 e7 81 bb 69 f1 2f bc ff e1 21 3c 8e e3 d6 bc
       -0.0039643594 -0.010738709 0.009880542 -0.026231553
000070 9e ba 3d bc ba ed 08 bc 7c c3 84 3b 5c 56 3a bd
       -0.011580138 -0.00835746 0.004051624 -0.045492515
000080 08 26 a2 bc c6 90 96 bc fd 61 af bb c9 ca 7a 3c
       -0.019793525 -0.01837958 -0.0053522573 0.015307137
000090 eb aa 85 bb 3c ba 74 bc 49 6a de bc ee f0 f0 3c
       -0.004079213 -0.01493698 -0.02715029 0.02941176
0000a0 e4 41 c6 3c 5b 76 f2 3b 4b d8 1f bd 33 a3 ff bc
       0.024201341 0.007399363 -0.039024632 -0.03120575
0000b0 e4 65 c5 3c 54 d9 05 3d 7f 7e 55 bd 47 42 0c bc
       0.024096437 0.032677963 -0.05212259 -0.008560724
0000c0 f7 8f 00 3d a8 8e 7b bb 74 77 d3 bc a4 ff a6 bb
       0.031387296 -0.003838459 -0.025813796 -0.0050963927
0000d0 e9 e8 9b 3a 74 eb 38 bc f3 db 40 bc 90 f2 ea ba
       0.0011894974 -0.011286605 -0.01177119 -0.0017925072
0000e0 b8 4d 7d 3b 8c 15 4a bb ea a2 36 bc 2d 89 92 3c
       0.003865106 -0.0030835597 -0.01114724 0.017887676
0000f0 bb 97 b2 3c 23 a9 a7 bc 6d ac e5 3c a4 d7 69 bc
       0.021800866 -0.020466393 0.02803632 -0.014272604
000100 be 1b 67 3c f9 2d 5d 3b 0c 2c 9f bc 94 14 50 39
       0.014105735 0.0033749326 -0.019430183 0.00019844092
000110 0f 36 15 3b 55 3e bd bc 7d b4 79 3c ca e8 ca 3c
       0.0022767817 -0.023101011 0.015240786 0.024769206
000120 90 1d 74 b8 fe d2 8a 3c f7 5e 86 3b 7d cb 38 bd
       -5.8201666e-05 0.016946312 0.004100676 -0.045115937
000130 81 81 92 bc 4e 47 09 bb b5 7e ec bb b3 02 c1 bb
       -0.017884018 -0.0020947042 -0.007217253 -0.0058902144
000140 0b 56 f1 bc 3e 66 d5 b8 59 d1 b9 3b 96 fe 25 bc
       -0.029459974 -0.000101756756 0.005670708 -0.010131499
000150 92 d8 a1 3c 0b 0a 00 bd f7 10 cc bc d9 ea f7 3c
       0.01975659 -0.031259578 -0.024910433 0.030263351
000160 ef bb 90 3c 59 e6 22 3d f2 7b 89 3c f8 8a b8 3c
       0.017667739 0.039770458 0.016782735 0.022527203
000170 95 65 b2 bc a2 7b 99 bc 49 a0 6f bb df 72 17 3c
       -0.021776954 -0.01873571 -0.0036564043 0.009243696
000180 9f c8 e5 bc c5 62 43 bc 0e 38 36 bd 3a 46 8e bc
       -0.028049765 -0.011925404 -0.04448705 -0.017367471
000190 0a c9 c5 bc 7e 19 6d bc 7c 23 a6 bc ee 9b fc bc
       -0.024143714 -0.01447141 -0.020280592 -0.030836072
0001a0 94 12 b9 bc 62 ff a1 3c 1c f0 4a bb e5 c3 14 bc
       -0.022591867 0.019775096 -0.003096587 -0.009079908
0001b0 33 8b 06 3d 3e 89 cf 3b 99 0f 0f bc 68 3d 49 3c
       0.032847594 0.006333499 -0.008731746 0.012282707
0001c0 f7 09 fe 3a d3 44 8f bc b8 e0 b2 bc c8 b0 04 3c
       0.0019381632 -0.017488873 -0.02183567 0.008098789
0001d0 f0 8f 86 3c 34 15 0c 3d eb 5c a1 bc 93 26 b5 bb
       0.016426057 0.03419991 -0.019697627 -0.00552828
0001e0 60 fe 0e bd 37 fe 5a bd d1 1a de bb b0 c0 fa 3c
       -0.03491056 -0.053465094 -0.006778099 0.030609459
0001f0 f5 7b 1c 3b 2b 3d 07 bd 94 c8 23 bc 02 9a d6 bc
       0.0023877595 -0.03301732 -0.009996552 -0.026196484

bn01.running_mean f4 [128]
000000 dc 42 89 3e 07 fa 99 3d 56 80 9f 31 25 81 a8 3b
       0.26808822 0.07518392 4.642099e-09 0.0051423484
000010 79 ec 9e 3e e8 40 0b 2e e5 33 8b 3f 00 00 00 00
       0.3103979 3.166259e-11 1.0875212 0.0
000020 5a f4 34 3f 03 14 07 40 d6 ba fe 3f 6a 04 2f 3e
       0.7068535 2.1105964 1.9900768 0.17091528
000030 b6 fd 8b 3e 6d 3b 37 3a 00 00 00 00 00 00 00 00
       0.27342004 0.0006989751 0.0 0.0
000040 83 65 78 3f 20 67 17 3f d3 cb 5e 3e 47 57 ab 3c
       0.97029895 0.5914173 0.2175744 0.02091564
000050 dd cf e4 3e 32 b1 16 3f 5a 6a 2e 3f 00 00 00 00
       0.44689837 0.5886413 0.6813103 0.0
000060 af 7c d5 3f 8f 67 80 3d 5c c8 93 3e a8 4f da 2e
       1.6678675 0.06269752 0.288638 9.927642e-11
000070 3f 85 29 3e cb 1b 92 3b 49 1a 09 3f 00 00 00 00
       0.16554736 0.0044588796 0.5355573 0.0
000080 c3 3c 2d 3f e4 46 e1 3f 62 2c 64 3f 5b d3 2a 3e
       0.6767084 1.7599759 0.8913022 0.16682188
000090 46 67 38 3f 34 3d 1d 3f 00 d7 2c 3f 00 00 00 00
       0.7203258 0.61421514 0.67515564 0.0
0000a0 a5 f7 c6 3f 7c d9 41 3f 8c 0d 4d 3f 73 d1 c1 3f
       1.5544325 0.7572248 0.80098796 1.5142044
0000b0 00 00 00 00 37 93 f6 32 00 00 00 00 00 00 00 00
       0.0 2.8705115e-08 0.0 0.0
0000c0 00 00 00 00 b1 6e a5 3f f3 10 fe 3f e7 f0 0c 3c
       0.0 1.2924405 1.9848922 0.0086023575
0000d0 6e 9a 07 3e 5c 2e 8d 3f 00 00 00 00 f3 47 3f 3f
       0.13242504 1.1029773 0.0 0.7471916
0000e0 00 00 00 00 00 00 00 00 e1 5b 42 3c 7a 92 42 3e
       0.0 0.0 0.011862726 0.19001189
0000f0 51 40 da 3e 29 cd b2 3f 00 00 00 00 a8 d0 58 3d
       0.42627195 1.396886 0.0 0.052933365
000100 00 00 00 00 aa 3e b1 3f 00 00 00 00 7f ec 70 3f
       0.0 1.3847249 0.0 0.94110864
000110 48 0b 4e 3f 00 00 00 00 e0 d3 91 3f 31 2d ff 3f
       0.80485964 0.0 1.1392784 1.9935666
000120 eb 44 dc 37 00 00 00 00 b3 3b df 3c e0 b1 65 3d
       2.6258136e-05 0.0 0.027250146 0.056077838
000130 e1 74 2f 3f d6 79 85 3f 40 9e 2a 3f 45 d3 df 3b
       0.6853772 1.0427806 0.6664772 0.006830605
000140 00 00 00 00 00 00 00 00 3c 26 f2 37 e2 ff 7d 3e
       0.0 0.0 2.8866452e-05 0.24804643
000150 1b 23 da 3c 10 a2 15 3d a7 f2 15 3e 64 ef 37 3b
       0.026628068 0.036531508 0.14643346 0.0028066272
000160 91 0b df 3e bd 6b 16 3f 6b 04 a1 3f 00 00 00 00
       0.43563512 0.58758146 1.2579473 0.0
000170 00 00 00 00 f6 d4 e4 3e d2 87 66 3f aa c8 ba 3e
       0.0 0.44693726 0.90050995 0.3648122
000180 fa 96 fc 3f 4f d2 78 3c 1d 7c ca 3f 33 84 ab 3f
       1.9733574 0.01518686 1.5819126 1.3399719
000190 ee 58 25 3d 34 50 69 3f 90 44 5a 3f d3 19 1b 3b
       0.040368013 0.91138005 0.8526087 0.0023666515
0001a0 54 11 92 3f 00 00 00 00 c1 97 ad 3a 60 e4 26 40
       1.1411538 0.0 0.0013244079 2.607689
0001b0 00 00 00 00 0e dd a0 3e 1d 87 d0 37 ee 3c 62 3f
       0.0 0.3141865 2.485845e-05 0.8837422
0001c0 58 3e 3b 3f b8 0e a1 3f 6e 9d 07 3d 00 00 00 00
       0.73142004 1.2582617 0.03310912 0.0
0001d0 00 00 00 00 ee 33 d7 3c ee c2 57 3e e9 61 ff 3f
       0.0 0.02626988 0.21070454 1.9951755
0001e0 00 00 00 00 61 61 22 3c 32 b4 70 3b 00 00 00 00
       0.0 0.009910912 0.0036728499 0.0
0001f0 b8 54 69 3f 00 00 00 00 1e 2e 9e 3e 1d 34 15 3f
       0.91144896 0.0 0.3089456 0.58282644

bn01.running_var f4 [128]
000000 a5 29 ce 3c b6 20 c4 3b 24 8d e2 36 52 45 e9 3a
       0.025166342 0.0059853448 6.751756e-06 0.0017797148
000010 ba 88 04 3d 35 8b e2 36 e5 6c c4 3d 35 8b e2 36
       0.032356955 6.7515307e-06 0.095910825 6.7515307e-06
000020 37 06 69 3d bd 5d 84 3e 65 87 6a 3e 9d c5 58 3d
       0.056890693 0.25852767 0.22903211 0.052922834
000030 50 0a 1f 3d a3 b3 c7 39 35 8b e2 36 35 8b e2 36
       0.038828194 0.00038090078 6.7515307e-06 6.7515307e-06
000040 71 de 0f 3e f3 df 94 3d 83 c7 f7 3c fc e2 a5 3a
       0.14049698 0.072692774 0.030246502 0.0012656148
000050 8d 5f 43 3d 6b 21 1c 3d 25 8c b6 3d 35 8b e2 36
       0.047698546 0.038117807 0.08913449 6.7515307e-06
000060 41 dc 07 3e 2e 6d 9f 3c 3a a2 7a 3d 35 8b e2 36
       0.13267614 0.01946124 0.061189868 6.7515307e-06
000070 35 48 57 3d 4d 9d 8a 3b 11 da d9 3d 35 8b e2 36
       0.052559096 0.0042301775 0.10637296 6.7515307e-06
000080 13 e3 b2 3d d3 94 34 3e 20 e7 09 3e 90 60 59 3d
       0.08734717 0.17634897 0.13467073 0.053070605
000090 c7 69 44 3d 76 e8 90 3d 32 52 41 3d 35 8b e2 36
       0.04795244 0.070755884 0.04719753 6.7515307e-06
0000a0 4a db 51 3e d8 62 4f 3d d3 ba 83 3d 35 2f 42 3e
       0.20493808 0.050631374 0.06432118 0.1896332
0000b0 35 8b e2 36 b8 b6 e2 36 35 8b e2 36 35 8b e2 36
       6.7515307e-06 6.756596e-06 6.7515307e-06 6.7515307e-06
0000c0 35 8b e2 36 3e 73 cf 3d 8a c7 46 3e d5 0d d7 3a
       6.7515307e-06 0.101294026 0.19412056 0.001640732
0000d0 32 7b 07 3d 5e 1a 11 3e 35 8b e2 36 16 9e ac 3d
       0.033076473 0.14170215 6.7515307e-06 0.0842859
0000e0 35 8b e2 36 35 8b e2 36 1a b2 0f 3c 32 d0 0c 3d
       6.7515307e-06 6.7515307e-06 0.00877049 0.034378238
0000f0 34 b9 8e 3d c5 82 25 3e 35 8b e2 36 8d 7f 1e 3c
       0.069689184 0.16163166 6.7515307e-06 0.009673965
000100 35 8b e2 36 e1 02 fe 3d 35 8b e2 36 b5 03 0e 3e
       6.7515307e-06 0.12402893 6.7515307e-06 0.13868602
000110 06 06 32 3e 35 8b e2 36 46 6b f7 3d 6b 66 6c 3e
       0.1738511 6.7515307e-06 0.12081008 0.23085944
000120 cd 87 7f 37 35 8b e2 36 f1 8e 2b 3b 33 d0 8c 3b
       1.5230803e-05 6.7515307e-06 0.002617773 0.00429728
000130 b1 bd 8d 3d b4 1d e2 3d 52 cf cb 3d 88 f2 20 3a
       0.069209464 0.11040822 0.099516526 0.00061396556
000140 35 8b e2 36 35 8b e2 36 90 a9 87 37 3d af 04 3d
       6.7515307e-06 6.7515307e-06 1.6172213e-05 0.032393683
000150 ea b6 d7 3b b3 3c 0f 3c 34 b9 00 3d a3 b7 fb 3a
       0.0065830844 0.008742499 0.031426623 0.0019204508
000160 6d 93 83 3d 80 77 26 3d 87 f8 12 3e 35 8b e2 36
       0.064246036 0.040641308 0.14352618 6.7515307e-06
000170 35 8b e2 36 35 2e 0d 3d 6f 59 d8 3d bb 13 3d 3d
       6.7515307e-06 0.034467895 0.10563933 0.046161395
000180 56 a1 35 3e 6a 77 6c 3b c9 52 25 3e fe af f4 3d
       0.17737326 0.0036081919 0.16144861 0.1194763
000190 88 a9 5d 3b ed 14 f7 3d f0 4b 76 3d d4 6c a9 3a
       0.0033822972 0.12064538 0.060131013 0.001292611
0001a0 84 94 63 3d 35 8b e2 36 34 d7 2d 3a 7e 76 b0 3e
       0.055561557 6.7515307e-06 0.0006631494 0.34465402
0001b0 35 8b e2 36 a2 a8 83 3c 0d ef 11 37 ef 26 e3 3d
       6.7515307e-06 0.016071621 8.698332e-06 0.1109141
0001c0 2c 96 1e 3d 39 51 47 3e af e0 c0 3b 35 8b e2 36
       0.038717434 0.19464578 0.0058861594 6.7515307e-06
0001d0 35 8b e2 36 75 bc 64 3b 41 99 f7 3c fd c7 7a 3e
       6.7515307e-06 0.0034902368 0.030224444 0.24490352
0001e0 35 8b e2 36 2e 94 86 3a 5e f2 28 3b 35 8b e2 36
       6.7515307e-06 0.001026755 0.0025779228 6.7515307e-06
0001f0 b9 93 0e 3d 35 8b e2 36 be 80 ca 3c f7 c4 b6 3d
       0.034808848 6.7515307e-06 0.024719592 0.08924287

conv2.bias f4 [64]
000000 53 d1 09 3a 1c 15 7e bb 50 2d 88 bc a1 ce a0 bc
       0.0005257327 -0.0038769906 -0.01662317 -0.019629778
000010 ef 9d 0b 3c e4 a0 90 3c d7 0c 5b 3b dc 52 f6 3b
       0.008521541 0.017654844 0.0033424401 0.007517202
000020 32 06 b8 3c 6d de 8f 3c d3 ab a1 3b 3a 0b b3 3c
       0.022463892 0.017562116 0.004933813 0.02185594
000030 3e 43 4b 3c 9f 21 49 3c f0 19 b2 3b a4 5b 55 3c
       0.0124061685 0.012276082 0.005435221 0.013022337
000040 41 70 fe bc ee d6 20 3c b5 ff 49 3c e6 c4 ff 3c
       -0.031059386 0.009816868 0.012329032 0.031221818
000050 a9 70 ed bc 08 7a 42 3b 63 f0 c6 3c db 39 81 3c
       -0.028984385 0.0029674787 0.024284547 0.015774658
000060 d2 7c b0 3b c0 81 b1 ba dc 4e 05 3c ff 69 ae 3c
       0.0053859735 -0.0013542697 0.008136477 0.021290777
000070 fa 01 2b 3c 65 f6 e4 3c df cd 4c 3c 1a 35 96 3b
       0.010437483 0.027949521 0.012500255 0.004583967
000080 b6 50 39 3c f7 6a 08 bc bd a4 84 3b d8 5c 2b 3d
       0.011310747 -0.008326284 0.0040479586 0.04183659
000090 2f 66 8b 3c ae d2 54 3c 74 1a 45 3c 3d a0 17 3c
       0.017016498 0.012989683 0.012030233 0.009254512
0000a0 1c dc 96 bb 62 20 7e bc dd 4d f6 3b c5 93 7f 3c
       -0.004603876 -0.01551065 0.0075166062 0.015599196
0000b0 4b aa 82 bc 9a 7c c7 3c 69 9b 64 3b a5 6b a7 3c
       -0.015950343 0.024351407 0.003488267 0.020437071
0000c0 1a 17 4d bb 00 b7 3b bc cc 1d bd 3b 31 df 02 3d
       -0.0031294287 -0.011457205 0.0057713743 0.031951133
0000d0 60 4f 96 3c f5 95 02 3d d3 69 84 3c 79 9c 54 3d
       0.018348396 0.03188129 0.016163742 0.051907036
0000e0 e2 e8 0e bc 47 5d ea bc a0 18 04 bb 87 b4 3c 3c
       -0.008722516 -0.028608931 -0.002015628 0.01151765
0000f0 44 ac a2 3c 99 85 8b 3c e7 12 ec ba 06 1a 68 3b
       0.019857533 0.017031478 -0.0018011004 0.0035415902

conv2.lin.weight f4 [64, 128]
000000 0e 70 e0 3c ea 62 2c 3e 74 73 ac bd f1 c7 f6 bd
       0.027397182 0.16834608 -0.084204584 -0.120498545
000010 d7 8f c9 3d 1e a1 c9 3d 63 3e 89 3d 38 6a 40 3d
       0.098418884 0.09845184 0.067013524 0.046976298
000020 43 32 88 3d 7b 93 32 be ff a1 1d be 38 b0 fb 3d
       0.06650212 -0.17439072 -0.15393828 0.122894704
000030 45 4d e4 bd 03 94 e5 bd 4e a7 11 3e 87 37 5f bc
       -0.111475505 -0.112098716 0.14223978 -0.013624079
000040 04 d1 40 bc 45 d4 21 be 50 49 dd bd 04 3a 2b 3d
       -0.011768583 -0.1580363 -0.10804999 0.041803375
000050 d6 02 ff 3d 5c 26 92 bd 49 9f 0d 3e d1 a6 ad bd
       0.12451713 -0.07136223 0.13830294 -0.08479083
000060 18 b3 d8 3d 1f 26 0e be 5d 2a dd bc 1b 14 2b be
       0.105810344 -0.1388173 -0.02699774 -0.16706888
000070 fd 65 f8 3d 85 e0 08 3d 3f cd d8 bc de 73 38 bd
       0.12128828 0.033417244 -0.026465056 -0.045032375
000080 2c 8b 91 3c 06 ee f0 3c 9f b9 62 bd f4 47 b3 3d
       0.017766558 0.029410373 -0.055352803 0.08753958
000090 d3 12 b2 3d 8f aa d2 bd 85 7f a9 3d 72 1d b7 3d
       0.08694997 -0.10286438 0.082762755 0.08941163
0000a0 d3 54 04 be ba 27 f2 bd 5b 66 0b 3e a5 0b 4e 3d
       -0.12922983 -0.118239835 0.13613264 0.050304074
0000b0 b5 58 a6 bd 42 c0 2c 3d 31 5b 1c bd 75 02 17 be
       -0.08122388 0.04217554 -0.038172904 -0.14747031
0000c0 d3 54 2e 3d f7 f9 fc bd 9e 36 b2 bc e2 25 02 3c
       0.042561363 -0.123523645 -0.02175456 0.007943602
0000d0 20 d1 26 be 5c e9 40 be f0 fe 08 3e dd 90 14 3e
       -0.16290712 -0.1883902 0.13378501 0.14508386
0000e0 cf a6 0d be 70 8b c2 bc e0 ce a4 3d 01 fd a1 bd
       -0.13833164 -0.02374813 0.08047271 -0.07909585
0000f0 7d da 08 be 64 ca fa 3d 7b f6 93 bc 9d 9e 11 3e
       -0.13364597 0.12245634 -0.018061867 0.14220662
000100 90 e1 5b bd b7 b4 62 bd d6 9b 9d 3d 70 4a 37 be
       -0.05368191 -0.055348124 0.07695739 -0.1789949
000110 1d 52 be bd 4b 83 88 bb 03 ee f5 3d 31 58 af 3d
       -0.092930056 -0.004166042 0.12008288 0.08561743
000120 18 9d 7e bd 3f ce 90 3d 16 39 83 3d 4f ad 38 be
       -0.062161535 0.07070588 0.06407373 -0.18034862
000130 13 65 4a 3d 16 ca d5 bc e6 03 0b 3d 0c b4 f5 bd
       0.049412798 -0.026097339 0.033939265 -0.11997232
000140 cf 57 51 3d 18 af 2d 3e 44 28 dd bd e1 e7 d2 bc
       0.05110913 0.16961324 -0.10798696 -0.025745334
000150 ea 3b bf bb 05 de b6 3d 52 bc a2 3c f5 02 bc bd
       -0.0058359997 0.089290656 0.019865189 -0.091802515
000160 d5 ed 07 3e c1 fc 83 bd 66 68 08 3e 5c 04 bb 3d
       0.1327432 -0.06444693 0.13321075 0.09131691
000170 07 30 d0 bb a2 fe e3 bd 08 53 dd bd 33 92 1d be
       -0.0063533816 -0.11132552 -0.108068526 -0.15387802
000180 25 9c 9f bd f4 24 b2 3d 71 01 f7 bc 12 b9 d0 3d
       -0.07793454 0.086984545 -0.030152055 0.10191549
000190 82 50 dc bc c0 5e ac 3c f6 0a e9 3c 2c 4a 61 bd
       -0.026893858 0.021041274 0.02844761 -0.055002376
0001a0 f3 04 e7 3d 53 54 21 3e 55 cd c9 3d 4f 12 95 3c
       0.11280241 0.15754823 0.09853617 0.018197207
0001b0 65 52 aa bd 67 f6 f8 3d cc 27 3c be d3 73 28 3e
       -0.08316497 0.121563725 -0.18374556 0.16450433
0001c0 16 34 56 bd 39 a4 5e 3d 7c 83 1b 3e 12 f9 64 3d
       -0.052295767 0.054355834 0.15186876 0.055901594
0001d0 f1 7e 29 3e 8f 47 13 3e 7d 71 0a 3e 6b 7b 29 3e
       0.1655233 0.14382766 0.13519855 0.16550986
0001e0 ab c7 a2 bc 4d 17 dc 3b dd b7 42 be 27 e4 f5 3d
       -0.0198706 0.006716645 -0.19015451 0.12006407
0001f0 8f 5a b1 bd 21 4e 36 3e 80 d2 07 be 44 b3 7c bd
       -0.08659851 0.17803241 -0.13263893 -0.0616944
000200 b3 aa fc bd 00 2b e4 3d 5f 68 ff 3d 85 05 03 be
       -0.12337246 0.11141014 0.12471079 -0.12795074
000210 10 31 de bd c8 ae 01 be 10 9a e5 3d 4f 13 e0 bd
       -0.10849202 -0.1266433 0.11211026 -0.10941183
000220 16 3e 5f bd 69 4e e7 bd 9d 2c 1a bd 43 32 98 3d
       -0.05450257 -0.112942524 -0.037640203 0.07431462
000230 bf 68 1e 3e ae e7 a2 bd 37 f2 28 3e e7 00 c3 bd
       0.15469645 -0.07954346 0.16498648 -0.095216565
000240 5b c2 02 bd 48 35 83 3d a5 68 c8 3d d2 4e 0e bc
       -0.031923633 0.06406647 0.09785584 -0.008685784
000250 78 1a b8 3d 77 73 9b bd a6 7b 02 bd da d0 f7 3d
       0.089894235 -0.075903825 -0.0318562 0.12100382
000260 46 53 45 bd 49 68 59 bd b6 36 93 bd d7 a3 ef bd
       -0.04817512 -0.05307797 -0.0718817 -0.11701172
000270 de f1 e9 bd cc 91 e9 3d 9f c7 4b 3c f6 e2 e7 bc
       -0.11423086 0.11404762 0.01243773 -0.028306466
000280 72 af 21 be 08 72 f1 3d 6e f1 ec 3c fc 45 e4 bd
       -0.15789583 0.11789328 0.028923716 -0.11146161
000290 3e 9e 55 3d 32 75 3b be bf fe 87 bd b3 c1 b0 bd
       0.052152865 -0.18306425 -0.06640386 -0.08630695
0002a0 3a 7a 94 bd 18 5a ac bd 25 a9 9d bd 6a ed 9d 3c
       -0.07249875 -0.084156215 -0.076982774 0.019278247
0002b0 5d 45 68 bd 41 e0 32 be 7d 4a a6 bc 89 66 dd bd
       -0.056706775 -0.17468359 -0.02029919 -0.10810573
0002c0 8d 60 8a 3c 90 55 81 bd cb ad 0e 3e af 32 1b be
       0.016891742 -0.06315148 0.13933484 -0.15156053
0002d0 86 11 4f 3d 3e 3a 98 3d 0a aa 2f 3d 5b b8 7e 3c
       0.05055382 0.07432984 0.04288677 0.015546883
0002e0 e4 a3 87 bd 12 12 77 bd c0 c4 29 3d 77 a1 04 3e
       -0.066230565 -0.060319968 0.0414474 0.12952219
0002f0 5e b4 4b bd 80 1d 0e bc 79 1e 06 be 16 12 a0 3d
       -0.04973256 -0.008674026 -0.13097562 0.078159496
000300 49 06 72 bd f8 9e aa 3d 87 12 6c 3c 1a 9f 5f bd
       -0.059088025 0.08331102 0.014408714 -0.05459509
000310 21 b6 c5 3d 0d 2b b8 bd 8f 86 93 bb d6 7b a9 bc
       0.09653879 -0.08992586 -0.0045021246 -0.020688932
000320 32 ec 06 3e 5f be be 3d 27 9e 18 3e 8f b7 9b bd
       0.13176039 0.09313654 0.1490408 -0.076033704
000330 98 cd 27 3d 45 87 1f 3e 21 04 f3 3c 94 5e 60 3d
       0.040967554 0.15578945 0.029665055 0.054777697
000340 0d 25 2b 3e 6d 77 b4 3c 6c 60 ed 3d 67 f5 1b be
       0.16713353 0.022029603 0.11590657 -0.15230332
000350 7c 8c 0a be 27 e5 10 3e c9 88 11 3e 63 d7 25 be
       -0.13530153 0.14149915 0.14212336 -0.16195445
000360 3e 9d 87 bb 72 d3 be bb 84 21 12 be 68 a5 41 be
       -0.004138618 -0.005823546 -0.14270598 -0.18910754
000370 e5 61 a1 3d 82 f1 2c 3d 87 b6 23 bd 64 8c fe 3c
       0.0788 0.042222507 -0.039968994 0.031072803
000380 e6 92 29 3e 5d 83 2d be ee 99 ed 3b cf e4 a7 3d
       0.16559944 -0.16944642 0.007251016 0.08197939
000390 56 56 99 bd dd 71 00 3e f3 01 d6 bd 88 32 8b 3d
       -0.074871704 0.12543435 -0.104495905 0.067967474
0003a0 f7 bb 16 3e eb b2 94 3d 39 7e 4b bd f4 e0 94 3d
       0.1472014 0.072606884 -0.049680922 0.07269469
0003b0 81 0d 5f bd 61 eb 6c bd 56 08 27 3d 4c 03 4f bd
       -0.054456238 -0.057841662 0.040779434 -0.050540254
0003c0 78 4f 9e bc b4 bc 54 3d 00 c3 a8 3d 42 d4 ab 3d
       -0.019325003 0.051937774 0.08240318 0.08390094
0003d0 50 8a 0a 3e cd fa 3e 3d 1b 24 19 3e dd 8d 1d bd
       0.13529325 0.0466259 0.1495518 -0.03846537
0003e0 4a 65 87 3c d1 8d 1f 3d d0 8c 7e bd ad 79 55 bd
       0.01652779 0.038953606 -0.062146008 -0.052117992
0003f0 a5 cb 1d be c4 db 0e 3b 02 f3 40 be 3f f2 68 3c
       -0.15409715 0.002179847 -0.188427 0.014217912

bn02.weight f4 [64]
000000 c8 fd 81 3f 0c d3 81 3f e0 a2 7c 3f 86 bf 7b 3f
       1.0155573 1.0142531 0.9868603 0.98339117
000010 d6 0d 82 3f 95 34 81 3f 83 30 7b 3f 7c 49 7c 3f
       1.0160472 1.0094172 0.981209 0.9854963
000020 25 4c 7e 3f 8d 60 81 3f 50 17 7d 3f ce 4a 7b 3f
       0.9933494 1.010759 0.988637 0.9816102
000030 c6 e8 80 3f 2f fd 7e 3f e5 96 7d 3f 4c 9e 77 3f
       1.0071037 0.9960508 0.9905837 0.96725917
000040 a8 8c 79 3f 6a b4 7b 3f e8 35 82 3f a2 67 84 3f
       0.9748025 0.98322165 1.0172701 1.0344126
000050 b8 15 75 3f 5e 0e 7d 3f c5 24 7f 3f b7 95 83 3f
       0.95736265 0.9885005 0.9966548 1.0280064
000060 8e 78 7e 3f f6 2f 80 3f 39 b0 74 3f 65 0c 81 3f
       0.994027 1.0014637 0.95581394 1.0081908
000070 4b d7 80 3f f9 cc 7c 3f 1f 11 7d 3f 12 80 7e 3f
       1.0065702 0.98750263 0.9885425 0.9941417
000080 0a 85 7a 3f b4 7f 77 3f 43 0e 82 3f 42 ca 81 3f
       0.9785925 0.96679235 1.0160602 1.0139849
000090 59 4e 7f 3f 98 5b 80 3f 87 e5 77 3f d3 29 7e 3f
       0.99728924 1.0027952 0.96834606 0.9928257
0000a0 ed da 83 3f 2d b1 7c 3f 11 48 82 3f d8 cc 7c 3f
       1.0301186 0.9870785 1.0178243 0.98750067
0000b0 50 59 79 3f d0 9a 83 3f c5 a8 7e 3f 18 5b 80 3f
       0.97401905 1.028162 0.9947627 1.00278
0000c0 56 b8 83 3f 5c 5e 7f 3f aa 5a 81 3f 8b 22 80 3f
       1.029063 0.99753356 1.0105793 1.0010542
0000d0 18 4f 7c 3f d6 20 76 3f 9e de 7a 3f dc e0 83 3f
       0.9855819 0.96143854 0.97995937 1.0302997
0000e0 8e b5 83 3f 83 da 77 3f 06 97 80 3f ff 23 7b 3f
       1.0289781 0.968178 1.0046089 0.981018
0000f0 e1 db 7f 3f 54 1b 82 3f 75 57 82 3f ae 26 7c 3f
       0.99944884 1.016459 1.018294 0.9849652

bn02.bias f4 [64]
000000 0e 29 2f 3c a3 85 9c 3b 77 e3 25 3c 40 fe 66 3c
       0.010690941 0.004776673 0.010125033 0.014098704
000010 d3 90 42 3d 8a 0a a8 3c 4a e3 22 bd b4 e4 ce 3c
       0.047501396 0.020512838 -0.03976754 0.025255539
000020 50 64 e1 3c 17 18 2b bd 61 40 a0 3b 67 ef 6f bb
       0.027513653 -0.04177102 0.004890487 -0.00366112
000030 48 50 02 3d e4 b9 31 bd 40 76 d6 3b 0d 4d 38 bc
       0.031814843 -0.04339017 0.006544858 -0.011248839
000040 e2 af 06 bd 65 44 3f 3d 20 96 9b bc c7 09 2d 3d
       -0.03288258 0.046696085 -0.018992484 0.042245653
000050 ab f8 62 bc 1f fa 78 3c ed 4f a8 3c cc de 3c bc
       -0.013853232 0.015196352 0.020545924 -0.011527728
000060 f5 8c 19 3d c8 c2 37 bd 9b 20 23 bd 21 d6 af bc
       0.037487943 -0.044863492 -0.039826017 -0.02146441
000070 ba b4 58 bd 59 54 6f 3c 2b 29 1e 3d df 38 b0 bc
       -0.05290673 0.014607512 0.03861348 -0.021511493
000080 c7 86 b2 3c dd db 94 bc bd f1 23 bd b9 f1 94 bc
       0.021792782 -0.018171245 -0.04002546 -0.018181669
000090 34 2e 7a bc 9b 9a f1 bc 3e 0b f9 3c f7 08 03 bd
       -0.015269805 -0.029492667 0.030400869 -0.03199097
0000a0 b1 f5 9b bc 38 ac 06 bd 88 b8 d6 3c 44 b6 fc bc
       -0.019038053 -0.032879084 0.026211038 -0.03084863
0000b0 8c 98 2a bd b4 c9 63 bc 8d 80 c9 3b a5 ee 2a 3c
       -0.041649386 -0.01390307 0.0061493577 0.010432874
0000c0 3d 8a 00 bd 93 df 2c bd 7f 99 dc bc bf 18 ee 3b
       -0.031381834 -0.042205404 -0.026928661 0.0072661336
0000d0 6c b9 12 3d 9e 1e 0a 3d e5 22 da 3c 9a bd 42 bd
       0.035821363 0.033720605 0.026627967 -0.0475441
0000e0 55 e3 e1 bc 5c a5 a6 bc 61 dc b8 3b d6 6d e3 bc
       -0.02757422 -0.020342521 0.0056415056 -0.027762335
0000f0 57 5c b1 bc e2 0b a7 bc 0b 18 2c bc 97 3b 29 bd
       -0.021650476 -0.020391408 -0.010503779 -0.041316595

bn02.running_mean f4 [64]
000000 97 d1 a9 3e df 07 87 3e 06 7a 36 3e 77 75 b7 3e
       0.33167717 0.26373193 0.17819986 0.35831806
000010 99 80 9d 3e c9 29 df 3e 19 ba b9 3e 8b 46 b3 3e
       0.30762175 0.43586567 0.36274794 0.35014758
000020 eb 85 e2 3e 5a 11 d0 3e 12 d3 aa 3e da 0d e4 3e
       0.44242796 0.40638238 0.3336416 0.44541818
000030 ba d9 97 3e 5d ec 24 3f 0e d7 a0 3e 06 63 e3 3e
       0.296583 0.6442316 0.31414074 0.44411486
000040 1a a1 0c 3e 1a 0a 87 3e 0b 48 1f 3f 49 8d be 3e
       0.1373333 0.26374894 0.62219304 0.37217167
000050 ee b0 8e 3e 33 82 13 3f 00 46 09 3f ca b1 18 3f
       0.27869362 0.57620543 0.53622437 0.59646285
000060 e6 af f1 3e 65 a4 a3 3e 02 35 ae 3e 28 f8 c4 3e
       0.47204512 0.3196136 0.34024817 0.38470578
000070 a0 36 b9 3e 4b e9 e8 3e df e5 8c 3e 15 97 c3 3e
       0.36174488 0.45490488 0.27519128 0.38201204
000080 7a 4f 88 3e 1b 8c 87 3e cd 4d bd 3e a6 a0 35 3f
       0.26623136 0.2647408 0.3697342 0.70948255
000090 79 12 96 3e 00 c0 10 3f 44 b4 c3 3e 7a b9 a4 3e
       0.2931097 0.5654297 0.3822347 0.32172757
0000a0 7e a6 37 3e b7 22 86 3e bb 44 83 3e 39 c0 40 3e
       0.17934605 0.2619836 0.25638375 0.18823327
0000b0 b8 43 63 3e 6e 64 da 3e eb 11 8a 3e 9e 37 a8 3e
       0.22193801 0.42654747 0.26966795 0.32854933
0000c0 9e 4b b4 3e 60 7e e5 3e 3f f8 6c 3e 49 4f 05 3f
       0.3521394 0.4482298 0.23141573 0.52074105
0000d0 62 5f ea 3e 98 be 0b 3f ae f7 86 3e fb ce cb 3e
       0.45775896 0.545877 0.2636084 0.3980635
0000e0 6e 63 b2 3e aa b0 14 3e ab 7f b2 3e 10 1e 9b 3e
       0.34841484 0.14520517 0.34863028 0.30296373
0000f0 bf 16 c2 3e 23 28 d1 3e 77 35 9e 3e dc 6c 0c 3f
       0.3790798 0.40850934 0.30900165 0.54853606

bn02.running_var f4 [64]
000000 00 b6 bf 3e 5b 6c 9c 3e 41 cb fa 3d ba 9b 61 3f
       0.37443542 0.3055142 0.12245799 0.88128245
000010 37 95 bc 3e 36 e1 bc 3e 26 8d ce 3e 7a 58 59 3e
       0.36832592 0.36890572 0.40342063 0.21225157
000020 21 54 2e 3e 99 9f f5 3e 7e 80 69 3e 24 1a 22 3f
       0.1702428 0.47973326 0.22802922 0.6332114
000030 53 d0 38 3e 23 14 33 3f 69 dd dc 3e fb 02 9a 3e
       0.1804822 0.699526 0.43137673 0.300804
000040 81 fb e3 3d 9c 69 5b 3e 63 e0 4c 3f d6 36 18 3e
       0.11131955 0.21427006 0.80029887 0.14864668
000050 8b a3 5f 3e c7 3d 99 3f ce 11 87 3f 5a 15 4c 3f
       0.2183973 1.1971978 1.0552309 0.7972008
000060 58 bf 33 3f 2c 73 db 3e 07 fd 70 3e 91 51 e0 3e
       0.7021384 0.42861307 0.23534022 0.4381223
000070 bc a7 c1 3e 10 12 8f 3e 57 2d b0 3e 5e 59 9a 3e
       0.37823284 0.27943468 0.34409592 0.30146307
000080 d8 c6 6a 3e c7 ba 95 3e d8 98 a8 3e 12 ab 2a 3f
       0.22927415 0.29244062 0.3292911 0.6666728
000090 ca aa 58 3e 85 d1 ad 3e 0d e7 ee 3e 8c 10 02 3e
       0.21158901 0.33948913 0.46660653 0.12701625
0000a0 bf 9e 12 3e e2 76 f2 3e 6a 27 97 3e 95 a5 30 3e
       0.1431837 0.47356325 0.29522258 0.17250665
0000b0 9d 16 dc 3e 03 35 db 3e 99 59 ed 3d b8 74 e1 3e
       0.42986003 0.42813882 0.11589355 0.44034362
0000c0 1c ce cf 3e ce b1 f7 3e ee 3e aa 3e 37 4c 94 3e
       0.40586936 0.48377842 0.33251137 0.28964397
0000d0 39 32 93 3e 3d 6f 2b 3f b1 07 f7 3d 22 60 c4 3e
       0.28749254 0.6696661 0.12062014 0.38354594
0000e0 be ff dd 3e 49 25 b1 3e 6b 84 31 3e 09 19 46 3e
       0.43359178 0.3459876 0.1733567 0.19345488
0000f0 62 05 a9 3e 6a 91 0f 3f 7a ff 85 3e 9c 7e 86 3f
       0.3301192 0.5608126 0.26171476 1.0507388

conv3.bias f4 [64]
000000 fb d0 6c ba 4e 79 1d 3d 11 7d c1 3c 68 5f 1a 3d
       -0.0009033826 0.038445763 0.023619207 0.037688643
000010 f1 9f 00 3d 8a eb df 3c 27 83 9d 3c 46 8c fc bc
       0.031402532 0.027333993 0.019227577 -0.030828606
000020 5c 77 1c 3d 29 44 e2 3c b8 14 30 3d 7b 14 a2 3c
       0.038199767 0.027620392 0.04298851 0.019785156
000030 11 57 15 3d 77 c8 02 bb 27 03 ba bb 8a e1 d7 3c
       0.036459986 -0.0019955912 -0.0056766453 0.026352663
000040 18 e5 3c 3d c4 ef cc bc fe 26 a4 bc f0 3a f8 3c
       0.04611692 -0.025016673 -0.020038124 0.030301541
000050 26 b1 bc 3c e0 c6 de 3a 96 99 c7 3c 2a 45 bb 3c
       0.02303369 0.0016996525 0.024365228 0.022860128
000060 ca 24 0f 3d 1d b2 ac 3c d9 15 db 3c 36 8b 29 3d
       0.034947194 0.021081025 0.026743816 0.041392528
000070 c8 d1 2a 3d 19 fd d4 3c 0c 07 e0 3c e5 25 3d 3b
       0.04170397 0.025999593 0.02734711 0.0028861698
000080 55 14 cf 3b 77 dc 23 3d 4d 10 0f 3d a7 2b 50 bc
       0.0063195624 0.040005174 0.034927655 -0.01270572
000090 23 06 21 3d e4 f9 e8 3c ca 57 4e 3d ee 43 10 bc
       0.039312493 0.02843947 0.05037669 -0.008805258
0000a0 5e 91 41 3b f0 d2 22 3d 03 a7 0f 3c af f0 ed 3c
       0.0029536108 0.039751947 0.008767846 0.029045431
0000b0 2a 6a 0d 3d 09 dd 23 3d 5b 06 c1 3c 17 f4 d8 3b
       0.034525074 0.040005717 0.0235626 0.0066208947
0000c0 ee 0b f9 3c 39 94 26 3d 74 5d c1 3c 8f 44 31 3d
       0.030401196 0.0406687 0.023604132 0.043278273
0000d0 70 99 d1 3c 79 e1 ee 39 94 ee 03 3d 19 93 9b 3c
       0.02558586 0.00045562888 0.032209948 0.01899104
0000e0 c2 0a aa 3c c7 51 c3 bc f7 ce 2a 3d df a6 2b bc
       0.020757083 -0.023842705 0.041701283 -0.010476797
0000f0 7b 3c e0 3c 43 15 da 3c e4 f2 23 3c 97 c5 1d bc
       0.02737259 0.026621467 0.01000664 -0.009629629

conv3.lin.weight f4 [64, 64]
000000 f5 8a 3b 3d 21 4e b8 3d a2 fb 8c 3d b2 ef 91 bd
       0.045786817 0.08999277 0.06883933 -0.071257964
000010 9b 4d 6e 3e c9 52 42 be 9b 7c 6f bd 8b 4d 5f be
       0.23271792 -0.18976893 -0.058468442 -0.21806924
000020 0b b3 15 3e 53 bd ff 3d 9e 17 0a be 08 1a bf bb
       0.1461908 0.124872826 -0.13485572 -0.0058319606
000030 39 8f 5e 3e af b8 1d be 6e 5a 48 bd 14 6b cb bd
       0.21734323 -0.15402482 -0.048914365 -0.09932533
000040 5f 17 99 bd d1 13 2c 3e 1e 99 09 3e 36 8e 5c be
       -0.07475161 0.16804434 0.13437316 -0.21538624
000050 f2 63 51 3e df 1e d6 bd d7 9e 58 be 21 4a 03 3e
       0.20448282 -0.10455107 -0.21154343 0.12821247
000060 a2 f3 14 be fc a7 2b 3e dc 8c 22 be 5e 8a 96 3d
       -0.14546064 0.167633 -0.15874046 0.0735061
000070 bd fd 2b bd e6 b8 fc 3d de 91 1e be e4 0a 4a 39
       -0.04199003 0.12339954 -0.15485331 0.00019268278
000080 c5 45 0b 3d eb de 26 3e 0a 81 2f 3e 32 d4 3c be
       0.034002084 0.16295974 0.17139068 -0.18440321
000090 3c ea c3 bd 95 55 41 be 73 6e b3 bd 19 99 3f 3e
       -0.09566161 -0.18880303 -0.08761301 0.18710746
0000a0 c4 75 44 3e 0b 7f 16 3e 0e cc 38 3e af 88 ae bd
       0.19185549 0.146969 0.1804659 -0.08522164
0000b0 52 13 09 be 3d 2f fe bd b4 51 e6 bd 8c e9 50 bb
       -0.13386276 -0.12411354 -0.112460524 -0.0031877486
0000c0 30 af 07 3d f4 38 53 3d f6 3f ce 3b d1 65 11 be
       0.033126056 0.051567987 0.006294246 -0.14198996
0000d0 56 33 50 bd 04 94 51 be 31 47 04 be 11 1f 2e bd
       -0.050830208 -0.2046662 -0.12917782 -0.042510096
0000e0 e8 5a 49 be 56 5e 45 3e 98 56 58 3e ec 1b 5e 3e
       -0.19663584 0.19274268 0.21126783 0.21690339
0000f0 02 ae 4e bd ec 14 3f 3e a0 a7 2d 3e 1d 9e 34 3e
       -0.050458916 0.18660325 0.16958475 0.1763844
000100 d3 67 b5 bd 91 9a fa 3d 2d f9 fe bd c6 b9 57 be
       -0.088576935 0.122365125 -0.1244987 -0.2106696
000110 ea df 7d 3b 30 b5 ec 3d 50 70 cd bd 92 a4 09 3d
       0.00387382 0.11557996 -0.100311875 0.033604212
000120 7a af 83 bd 82 03 c7 bd e0 75 1e 3e b4 d4 94 3d
       -0.06429954 -0.09717466 0.15474653 0.072671324
000130 18 de c6 bd a0 ec ab bc 1a 4f ed 3c 8b 44 1b be
       -0.0971033 -0.020986855 0.028968383 -0.15162866
000140 11 15 06 be a0 ab c3 3d 0d 1c 4e be 7b 56 1e 3e
       -0.13093974 0.09554219 -0.20127888 0.15462677
000150 c5 db b5 3d 15 4c 23 be d5 0b e3 bd 72 c8 54 3e
       0.08879808 -0.15946992 -0.11086241 0.20779589
000160 b1 7c d1 bd 3c a9 c2 bd bc 75 e9 39 8f 42 6d bd
       -0.10228861 -0.09504935 0.00044528942 -0.057924803
000170 6b d5 41 be 8e 60 ff 3d 95 06 2c 3e b2 bd c7 3d
       -0.18929069 0.12469588 0.16799386 0.097529784
000180 26 d7 f3 bb 3c 8e 8e 3d cb 37 2d be fd ec 31 3e
       -0.007441419 0.06960723 -0.16915815 0.1737556
000190 b3 55 74 be e6 2a 84 bd ff 0b 4a 3e 01 d5 bd 3d
       -0.23860817 -0.06453495 0.19731139 0.09269143
0001a0 b2 0a 4f 3d bb 6a 3a 3d 84 a9 62 bd 97 02 c8 3d
       0.05054731 0.045511942 -0.055337444 0.09766119
0001b0 5b 2e 14 be de 27 89 3d 79 db c6 3d 9b c0 5a be
       -0.14470808 0.06697057 0.0970983 -0.21362536
0001c0 59 73 2a 3e 9e c4 ec bd 18 a1 de bd 3d 7d 35 3d
       0.16645564 -0.11560939 -0.1087057 0.04430889
0001d0 e9 55 98 3d 9b ac cb 3d b6 cc 86 bd 2d 9d 40 bd
       0.07438261 0.09945031 -0.06582014 -0.047024895
0001e0 0c b0 57 be 58 d3 1f 3e 6c 36 dd bd 78 9e 3b be
       -0.2106325 0.15607965 -0.10801396 -0.1832217
0001f0 a5 06 bb bc 15 5a 59 bd bb af a4 bd 44 1c b9 bc
       -0.022830317 -0.053064425 -0.080413304 -0.022596486
000200 b2 8f 15 be 50 7f f1 3d 42 74 0e be 14 2d 6d bd
       -0.14605597 0.11791861 -0.13911536 -0.057904318
000210 23 a6 e6 3d 4b f3 c0 3d cb b0 09 3d ca 1b 5f be
       0.11262157 0.094214045 0.03361587 -0.21787944
000220 28 f6 52 3e 2b 13 42 be c0 b3 21 be 4c 6b ec bc
       0.20601714 -0.18952624 -0.15791225 -0.028859757
000230 36 50 84 3d e5 8a 98 bd 56 0a f9 3d fc 98 9c bd
       0.064606115 -0.07448367 0.121601745 -0.07646367
000240 f2 66 15 be 9d c4 15 bd fe b8 87 3d 9c ad cd bc
       -0.14590052 -0.03656446 0.06627081 -0.025107197
000250 fb fb 65 bd 36 51 8d bd 7a 8f fa 3d 4e ba 4b 3e
       -0.05614851 -0.069002554 0.12234397 0.19895288
000260 c0 a5 e2 bd c4 50 4b bd 2f b6 5d be aa 25 04 be
       -0.110667706 -0.04963757 -0.21651529 -0.12904993
000270 9a 79 f0 bc 94 3d 9e bc 97 79 3f be 92 32 28 3e
       -0.02935486 -0.019316472 -0.18698727 0.16425541
000280 20 ae 05 be 8e ef 9c bd d4 a4 54 be 07 63 49 be
       -0.13054705 -0.07662879 -0.20766002 -0.19666682
000290 eb fb 28 3e 10 5d 97 3d 62 a8 4c 3e fb cf 7a ba
       0.16502349 0.07390797 0.19986108 -0.00095677347
0002a0 71 9e 4d 3d 74 d8 8d bd ec b3 49 be ab 35 66 be
       0.05019993 -0.06926051 -0.19697541 -0.2248141
0002b0 07 ec 94 3d 07 e3 05 be f6 85 1d 3e ef 86 8f bd
       0.07271581 -0.13074885 0.15383133 -0.070081584
0002c0 11 a8 db 3d f0 b7 2d be 9d 07 58 be ad 91 30 3e
       0.107254155 -0.16964698 -0.21096654 0.17243071
0002d0 66 12 c0 bd 77 81 1b 3d bf 3e f3 3c 7b 67 3b be
       -0.09378509 0.037965264 0.029693006 -0.18301193
0002e0 2d b6 d9 bd 0e 1a 57 be df 9d 53 bc 9f aa 07 3e
       -0.106304504 -0.21006033 -0.012916057 0.1324868
0002f0 2d 31 24 be 11 11 d0 bd f4 2a 2e 3c 85 c5 76 bd
       -0.16034384 -0.10159505 0.010630358 -0.060246963
000300 4a 26 92 bd f1 d0 0d 3d a7 22 87 bd 37 3b 6c 3d
       -0.07136209 0.03462309 -0.06598406 0.05767366
000310 2c c3 b3 bd 4b df bc bd 86 53 ec 3d cb 89 3a be
       -0.087774605 -0.09222277 0.11539368 -0.18216626
000320 3a c1 e3 bc 25 d3 b6 bc e5 01 f0 bb 60 36 08 be
       -0.027802099 -0.022317478 -0.0073244446 -0.13301992
000330 f2 62 4a be a7 8e 80 be 63 1f c7 3d 49 3e bc 3d
       -0.19764307 -0.25108835 0.097227834 0.091915675
000340 36 34 c5 3d 78 e2 8c 3d de 12 2f be b7 14 d6 3d
       0.09629099 0.06879133 -0.17097041 0.1045317
000350 79 80 28 be 5e 0e e0 bd 50 d0 89 3d 5a 8a b9 3c
       -0.16455258 -0.1094024 0.067291856 0.022648979
000360 04 03 08 3e bf 0f a4 3c 20 c3 17 bd bb 3f 14 3e
       0.132824 0.02002704 -0.03705132 0.14477436
000370 fa 2c 29 3e 2d ad 84 3d 3f d8 29 3e a9 7a f8 bd
       0.16521063 0.06478343 0.16586398 -0.121327706
000380 dd bd ae 3d 31 9b 18 bd 6f 47 83 3d ba 58 25 be
       0.08532307 -0.037257377 0.06410109 -0.16147128
000390 eb 76 33 3d d3 c4 f4 bd 29 d3 b9 3d 5f 8e e3 3d
       0.04381458 -0.11951604 0.09073479 0.111111395
0003a0 7b 42 13 3e c0 fc 78 3d 92 81 61 3e 6f 1c f0 3d
       0.14380829 0.060787916 0.22022083 0.11724173
0003b0 de 15 13 3e c0 fd 34 3e 41 f1 2d 3e f1 64 2f be
       0.1436381 0.17674923 0.16986562 -0.1712835
0003c0 30 b4 5d bd b6 c4 ba 3d f5 4f 31 3e 4b 4c 0d be
       -0.05412692 0.09119551 0.17315657 -0.13798635
0003d0 38 bf c7 3d ba 55 c6 3d a9 8a 4e 3b 15 d8 41 3d
       0.09753269 0.0968432 0.0031515753 0.047325213
0003e0 4c 12 be 3d 97 8d 2f 3e f3 bd 4d be a6 0d ea 3c
       0.092808336 0.17143856 -0.20091991 0.028570961
0003f0 7e fe f3 bc 0a 50 3c 3e e7 c7 10 3e 8c b7 3b 3e
       -0.029784437 0.18389907 0.14138757 0.18331736

bn03.weight f4 [64]
000000 a1 19 86 3f d7 eb 84 3f 7b b1 81 3f fc 62 84 3f
       1.0476571 1.0384473 1.0132288 1.0342708
000010 9f 6a 84 3f f2 20 82 3f 80 a6 83 3f 30 9b 85 3f
       1.0345038 1.0166304 1.0285187 1.0437984
000020 48 8a 83 3f a1 2f 85 3f bc e1 82 3f 28 57 84 3f
       1.0276575 1.040516 1.0225139 1.0339098
000030 5b 8f 82 3f 6e ef 81 3f 8d 8f 82 3f 6b 9c 82 3f
       1.0199999 1.0151193 1.0200058 1.0203985
000040 90 8f 80 3f cd 4c 7c 3f 7f 1a 80 3f a9 43 85 3f
       1.0043812 0.9855469 1.0008086 1.0411273
000050 21 d4 83 3f 5a 93 80 3f 18 6e 7f 3f 22 a7 83 3f
       1.0299112 1.0044968 0.99777365 1.028538
000060 11 23 83 3f 72 28 80 3f 32 94 84 3f 88 84 85 3f
       1.0245076 1.0012343 1.0357726 1.043107
000070 75 24 86 3f f3 12 85 3f db 9b 82 3f 98 66 80 3f
       1.0479876 1.0396408 1.0203813 1.0031309
000080 a8 bb 83 3f 5d d3 82 3f fd ea 82 3f ff a3 81 3f
       1.0291643 1.0220753 1.0227963 1.0128173
000090 9a cc 82 3f 98 c8 84 3f 70 f6 81 3f a7 2f 82 3f
       1.021869 1.0373716 1.0153332 1.0170792
0000a0 ec 75 83 3f 8f bd 84 3f 04 f0 83 3f 21 e5 83 3f
       1.0270362 1.0370349 1.0307622 1.03043
0000b0 2b 6a 83 3f e4 9d 83 3f ac 10 81 3f d7 43 82 3f
       1.0266775 1.0282559 1.0083213 1.0176953
0000c0 4b 45 83 3f e7 a1 84 3f 22 5e 7f 3f 86 58 84 3f
       1.0255522 1.0361909 0.9975301 1.0339515
0000d0 f7 b3 83 3f 99 84 84 3f e8 00 83 3f df ac 81 3f
       1.0289296 1.0352966 1.0234652 1.0130881
0000e0 4e 3c 83 3f 80 0c 83 3f b2 37 84 3f a1 ea 84 3f
       1.0252779 1.023819 1.0329497 1.0384103
0000f0 39 93 84 3f 33 fa 82 3f 4f 29 81 3f 65 05 84 3f
       1.0357429 1.0232605 1.0090731 1.0314146
